best_model.pth (torch, 9461 bytes, 14 tensors)

encoder.0.weight f4 [16, 18]
0	0xbf82dd1b	-1.0223726
1	0x3dfa8ae3	0.12233522
2	0xbd2e2364	-0.04251422
3	0xba99fab5	-0.001174769
4	0x3dccd0c6	0.10000758
5	0x3f394e30	0.7238493
6	0xbf545be1	-0.82952696
7	0x3efe397c	0.49653232
8	0x3e70873d	0.2348909
9	0xbe5ea1ce	-0.21741411
10	0xbd6ed8d8	-0.058312267
11	0x3e79c6fc	0.24392313
12	0xbde43298	-0.111424625
13	0xbf001015	-0.5002454
14	0xbe9585d3	-0.29203662
15	0xbebb57cf	-0.3659043
16	0x3dd9221e	0.106022105
17	0xbf235074	-0.63794637
18	0xbcf31c0d	-0.029676462
19	0x3d2556be	0.040365927
20	0x3ebfebb6	0.3748452
21	0x3ea66ad4	0.32503378
22	0x3f380954	0.71889234
23	0x3f340b06	0.7032932
24	0xbeb4eed2	-0.35338455
25	0x3ea12041	0.3146992
26	0xbdc8b001	-0.09799195
27	0xbcbc3f76	-0.02297948
28	0x3dc5217e	0.09625529
29	0xbd6b353e	-0.057423823
30	0x3f3ad710	0.7298441
31	0x3e3ac609	0.18239607
32	0xbedc22c2	-0.42995268
33	0x3ee127ce	0.4397568
34	0x3e88163e	0.2657947
35	0xbf106775	-0.5640786
36	0xbed92c77	-0.42416736
37	0x3eb851a5	0.3599979
38	0xbcc17636	-0.023615938
39	0x3f1c97fc	0.6116941
40	0x3f844ed8	1.0336561
41	0x3f3ea590	0.7447138
42	0x3f6f25da	0.9341713
43	0x3e66250c	0.2247507
44	0x3ce50477	0.02795623
45	0xbd91fc66	-0.07128219
46	0x3dd77f1a	0.105222896
47	0x3e83aedb	0.25719342
48	0x3e5e4784	0.21706969
49	0xc002bc79	-2.0427535
50	0x3e6d68ca	0.23184505
51	0xbef6489b	-0.4810227
52	0xbe7fde7d	-0.24987216
53	0x3f681979	0.9066387
54	0xc03386c3	-2.8051002
55	0x3d385ff6	0.04501339
56	0x3dd1d080	0.10244846
57	0x3f36d611	0.7142039
58	0x3e2533c3	0.16133027
59	0x3e1097cd	0.14120407
60	0xbf8fff7c	-1.1249843
61	0x3f253480	0.64533234
62	0x3bba4ea6	0.005685645
63	0xbe4b3454	-0.1984418
64	0x3e51a519	0.20473136
65	0xbc2d573b	-0.010579879
66	0xbed9fb72	-0.4257465
67	0xbf8ae473	-1.0850967
68	0xbf05ad63	-0.5221769
69	0xbe47cef4	-0.1951254
70	0x3e14a2bb	0.14515202
71	0xbf22c3ba	-0.63579905
72	0xbfdd4323	-1.7286114
73	0x3e8d817a	0.27637845
74	0xbd4ad24a	-0.049516954
75	0xbdc3aeb2	-0.09554805
76	0x3e72df39	0.23717965
77	0x3f946a69	1.1594974
78	0xbf5258d7	-0.8216681
79	0x3f8c4e16	1.096133
80	0xbd99f1d6	-0.0751683
81	0xbd953ecf	-0.072873704
82	0x3e2ba0fb	0.16760628
83	0x3e1179e6	0.14206657
84	0x3e1c4011	0.15258814
85	0xbfe07896	-1.75368
86	0xbe0fb3d7	-0.14033447
87	0xbe6d899f	-0.2319703
88	0x3e1c4b12	0.15263012
89	0xbe5fd267	-0.21857606
90	0xbf895883	-1.0730137
91	0x3e861a11	0.26191762
92	0xbe33aab1	-0.17545582
93	0x3e27d81a	0.1639103
94	0x3f36c461	0.713934
95	0x3f2cf045	0.6755412
96	0x3ea8d866	0.329776
97	0x3f2e0524	0.67976594
98	0xbdae359b	-0.08506318
99	0x3bc2a259	0.0059397635
100	0xbe60fc2f	-0.219712
101	0x3d161356	0.036639534
102	0x3d506c79	0.050884698
103	0xbfebb765	-1.8415343
104	0xbf1c0697	-0.60947555
105	0xbeb78787	-0.35845587
106	0xbddd0ef3	-0.10793867
107	0x3ee71b52	0.4513803
108	0x3ceb2e07	0.028708471
109	0x3f3051e2	0.68874943
110	0x3d1e0d67	0.038587
111	0xbd5b51d1	-0.053544823
112	0x3e3979a2	0.18112805
113	0x3ec12757	0.37725326
114	0x3f70277b	0.9381024
115	0xbec2c95d	-0.38044253
116	0x3dbb8d54	0.091578156
117	0xbd639d5e	-0.05557
118	0xbcd6e808	-0.026233688
119	0x3e58abff	0.21159361
120	0xbec7e11e	-0.39038938
121	0x3f7d3684	0.9891131
122	0x3ebddfb6	0.3708474
123	0xbe71a895	-0.23599465
124	0xbee8b880	-0.45453262
125	0x3f5c47df	0.86047167
126	0x3d8008de	0.06251691
127	0x3d1e9eb5	0.038725574
128	0x3e5580da	0.20849934
129	0x3ecaf883	0.39642724
130	0xbd4ae6ed	-0.049536634
131	0x3efe21ae	0.4963507
132	0xbf55b79e	-0.834833
133	0x3ef51c62	0.47873217
134	0xbdb1affe	-0.08676146
135	0xbdfe741e	-0.12424491
136	0x3e40ebad	0.18839903
137	0xbe9b37db	-0.30316052
138	0x3eaa0f13	0.33214626
139	0xbeec6a48	-0.46174836
140	0x3d344b3f	0.044017073
141	0x3decf7a7	0.115706734
142	0x3f2210e6	0.63307035
143	0xbefc9db1	-0.4933906
144	0xbe314b0a	-0.17313781
145	0xbe5f7340	-0.21821308
146	0x3d37dad2	0.044886418
147	0x3d44aac2	0.04801441
148	0xbd0abd71	-0.03387207
149	0x3d1abfea	0.03778068
150	0x3dfb5b78	0.12273306
151	0x3db9bbae	0.09069
152	0x3e42bbbb	0.19016926
153	0xbe1b4ce3	-0.15166049
154	0x3dfc167a	0.123089746
155	0xbe128c60	-0.14311361
156	0xbdfdcfc3	-0.12393143
157	0xbd67b538	-0.056569308
158	0xbe69ae20	-0.2282033
159	0xbe0cbf9e	-0.13744971
160	0xbe331c5b	-0.17491286
161	0x3df0ae58	0.117520034
162	0xbbf19447	-0.0073724124
163	0x3ee53aad	0.4477133
164	0x3e2a78a4	0.16647583
165	0x3e9f7202	0.3114167
166	0x3e9649e7	0.29353258
167	0xbe99f322	-0.30068308
168	0xbd25d677	-0.040487733
169	0x3f226895	0.6344083
170	0xbe81718c	-0.25281942
171	0x3ca19ca1	0.019728007
172	0x3e0852b7	0.13312803
173	0x3e2a7aae	0.16648361
174	0xbb9eb894	-0.004843781
175	0xbfc28d34	-1.5199342
176	0x3f86d12a	1.0532582
177	0xbc83b8fc	-0.016079418
178	0x3d8e2926	0.06941442
179	0x3ea12ef7	0.31481144
180	0xbddfd273	-0.10928812
181	0x3e71b094	0.23602515
182	0x3d8ec661	0.069714315
183	0x3f2cba87	0.6747212
184	0x3e3a3dd0	0.18187642
185	0xbf21df27	-0.6323113
186	0x3f826d01	1.0189515
187	0x3ece2506	0.40262622
188	0x3d77998e	0.060449176
189	0xbc372c85	-0.011180048
190	0x3d548a34	0.051889613
191	0x3e407a7a	0.18796721
192	0x3eb14f5d	0.34630862
193	0xbfc96684	-1.573441
194	0x3fc9adb4	1.5756135
195	0xbde64786	-0.11244111
196	0x3a176a51	0.0005776035
197	0x3f3e9462	0.74445164
198	0x3f1b1045	0.605717
199	0x3e1503c1	0.14552213
200	0x3e805c8a	0.25070602
201	0x3e89c30e	0.26906627
202	0x3da773e5	0.08176402
203	0x3f6594cf	0.8968019
204	0x3fb76ccf	1.4330081
205	0x3f2c9d6b	0.674277
206	0xbe6f3265	-0.23359068
207	0x3d91c233	0.07117119
208	0xbdc98e3e	-0.09841584
209	0x3e90cf6d	0.28283253
210	0xbec2a4e5	-0.3801643
211	0xbfa7ff9a	-1.3124878
212	0x3f170b57	0.5900168
213	0xbeeab95d	-0.45844546
214	0x3d8a0bb7	0.06740516
215	0x3fdd6adf	1.729824
216	0x3e07ab13	0.13248853
217	0x3e2a725c	0.16645187
218	0x3b911af0	0.00442826
219	0xbdff8ff0	-0.12478626
220	0x3e1abf70	0.1511209
221	0xbedf2f22	-0.43590647
222	0x3fd6b540	1.6774063
223	0xbea0bc8f	-0.3139386
224	0xbdde496e	-0.10853849
225	0xbca460a9	-0.020065622
226	0xbd86a2ca	-0.06574018
227	0x3f375b95	0.7162412
228	0xc03f291a	-2.9868836
229	0x3f373855	0.7157033
230	0xbe867f2d	-0.26268902
231	0xbe1a930f	-0.15095161
232	0x3e3f278f	0.18667434
233	0x3fc7c2dc	1.5606341
234	0xbff07438	-1.8785467
235	0x3dbb3e4d	0.09142742
236	0xbe223cfd	-0.15843578
237	0x3f305144	0.68874
238	0x3e4e72f0	0.20161033
239	0x3dd065cd	0.10175667
240	0xbf78e482	-0.97223675
241	0x3ec9c76e	0.39409965
242	0x3def197f	0.11674785
243	0x3c1ffa10	0.009764209
244	0x3d46000c	0.04833989
245	0x3e77bf6a	0.24194112
246	0x3e1faf22	0.15594152
247	0xbf9ac911	-1.2092611
248	0xbf22fb3b	-0.636646
249	0x3d7db6d0	0.06194192
250	0x3f0bd9e1	0.5462933
251	0xbf178716	-0.591905
252	0x3e340221	0.17578937
253	0x3ebae0f8	0.36499763
254	0x3e16a4d5	0.14711316
255	0x3de7e5a0	0.11323094

encoder.0.bias f4 [16]
0	0xbe5a6e81	-0.21331216
1	0xbd270f2f	-0.040785965
2	0xbdeaa87e	-0.114579186
3	0xbd8e6d3f	-0.06954431
4	0xbf0eb3a1	-0.5574284
5	0xbea6f7c6	-0.3261091
6	0x3f73525a	0.95047534
7	0xbf0068ce	-0.5015992
8	0xbe4cc0d7	-0.19995438
9	0x3ebf47c1	0.3735943
10	0x3eaf7fdc	0.34277236
11	0x3e99470f	0.29937026
12	0x3e8a4696	0.27006978
13	0xbf0c99db	-0.54922265
14	0x3f133ae4	0.57511735
15	0xbdbb2716	-0.091383144

encoder.2.weight f4 [8, 16]
0	0xbc096940	-0.00838691
1	0xbe7f75ba	-0.24947253
2	0xbd56d168	-0.0524458
3	0xbd9c33f4	-0.07627097
4	0x3c519c40	0.012793601
5	0x3d559c18	0.052150816
6	0xbdf6f99c	-0.12059328
7	0xbe15eb0e	-0.14640447
8	0x3dc43eb0	0.09582269
9	0xbe160d1e	-0.14653441
10	0x3dea9cc8	0.11455685
11	0xbdafdf68	-0.08587533
12	0xbd65f3d8	-0.05614075
13	0xbe447410	-0.191849
14	0xbe53a5c6	-0.20668706
15	0xbc6ce900	-0.014459848
16	0x3e96cd48	0.29453492
17	0x3eb760ba	0.35815984
18	0x3f1d6ea7	0.6149697
19	0x3f70b83a	0.9403111
20	0x3ee5c7b0	0.44878912
21	0x3f4e0ae3	0.8048536
22	0xbf4643a1	-0.77446944
23	0x3ebe8955	0.3721415
24	0xbe6e70d1	-0.23285224
25	0x3f6dd744	0.92906594
26	0x3f93c1ca	1.1543515
27	0x3e20c0b8	0.15698516
28	0x3f000fcc	0.50024104
29	0x3f44853d	0.76765805
30	0xbf2dc3ae	-0.6787671
31	0x3e315456	0.17317328
32	0x3f9b565b	1.2135729
33	0xbe8244d1	-0.25443128
34	0xbe7be7f6	-0.24600205
35	0xbf7578dd	-0.9588755
36	0xbea113c5	-0.31460395
37	0x3e1a222c	0.15052098
38	0x3edf67f1	0.43633988
39	0xbec9b089	-0.39392498
40	0xbe57f4be	-0.21089455
41	0x3e6cc8ba	0.23123446
42	0xbd40da7f	-0.047083374
43	0x3de99a7c	0.11406419
44	0x3eac3c9f	0.3364
45	0xbf927595	-1.1442133
46	0x3e99f7db	0.3007191
47	0x3d3c1259	0.045915935
48	0xbe3c89da	-0.18411961
49	0xbe5380df	-0.20654629
50	0x3f6e68a6	0.9312843
51	0xbd8bd8fd	-0.068284966
52	0x3e7ca3d4	0.2467187
53	0x3eadba7b	0.33931336
54	0x3f7f30bd	0.99683744
55	0xbf23ad71	-0.63936526
56	0xbe3cc65a	-0.1843504
57	0x3d437c28	0.047725827
58	0x3e8f61d1	0.28004315
59	0x3f3dcb5a	0.74138415
60	0xbf98c88b	-1.1936201
61	0xbeb8d3a7	-0.36098978
62	0x3f826351	1.0186559
63	0xbdd0de38	-0.10198635
64	0x3eb45b78	0.35226035
65	0x3f21c19e	0.6318606
66	0x3deb97ee	0.11503588
67	0x3eeb0ebe	0.45909685
68	0x3e3164bd	0.17323585
69	0x3e7b7feb	0.24560516
70	0xbf18e57e	-0.5972518
71	0x3f0548ec	0.52064395
72	0x3e4b02c0	0.19825268
73	0xbe917eb1	-0.2841697
74	0xbf33d4fc	-0.70246863
75	0xbec0e5d7	-0.37675354
76	0x3f644e20	0.8918171
77	0x3eb8ae80	0.36070633
78	0xbf322305	-0.69584686
79	0x3f20c7b0	0.628047
80	0x3f97e643	1.1867145
81	0xbea7158c	-0.32633626
82	0xbe74fff3	-0.23925762
83	0x3e059db0	0.13048434
84	0x3fcdf63a	1.6090767
85	0x3f7d05ee	0.98837173
86	0xbe6b63ff	-0.22987364
87	0x3eb8536c	0.36001146
88	0x3dd4dee7	0.10394078
89	0x3efdcbb4	0.49569476
90	0x3e8382e8	0.2568581
91	0x3fa08af0	1.25424
92	0xbf537959	-0.82607037
93	0x3dabf27c	0.083958596
94	0xbe53ddca	-0.20690075
95	0x3ede3f00	0.4340744
96	0x3f619967	0.881247
97	0x3f3748ee	0.71595657
98	0x3dd6649d	0.10468409
99	0x3ebd3a73	0.36958656
100	0x3ebbc878	0.36676383
101	0x3d01ca3e	0.031687014
102	0xbf2025c4	-0.62557626
103	0x3f56d9f1	0.839263
104	0x3e30ad4f	0.17253612
105	0xbf1a467c	-0.602638
106	0xbf8dcb53	-1.1077675
107	0xbdb0ac2a	-0.08626588
108	0x3f744d1c	0.9543016
109	0x3ef8146c	0.4845308
110	0xbf22ebac	-0.63640857
111	0x3f01409a	0.504892
112	0x3e96ca18	0.2945106
113	0xbf507ca6	-0.814402
114	0x3f551d71	0.8324805
115	0x3f92af61	1.1459771
116	0x3f6b2ed8	0.9186835
117	0x3f9c39d8	1.2205153
118	0x3ef7a0bb	0.48364815
119	0x3e030190	0.12793565
120	0x3e72e91a	0.23721734
121	0x3f11b3bf	0.56914896
122	0x3ef0f478	0.47061515
123	0x3f83a0ca	1.0283444
124	0xc008b462	-2.1360097
125	0x3f9f1955	1.2429606
126	0x3f19ac6d	0.60028726
127	0x3f34662c	0.704684

encoder.2.bias f4 [8]
0	0xbe250592	-0.16115406
1	0x3d5c690d	0.05381112
2	0xbe87e683	-0.26543054
3	0x3eccfb9a	0.40035707
4	0xbe0c9fd5	-0.13732846
5	0xbe358b27	-0.17728864
6	0xbe3a4b58	-0.18192804
7	0xbe862200	-0.26197815

encoder.4.weight f4 [4, 8]
0	0x3d979b14	0.07402626
1	0x3f76bc9f	0.9638156
2	0xbfa3545c	-1.276012
3	0xbf25bc93	-0.64740866
4	0x3ea6ee27	0.3260357
5	0xbed2148e	-0.41031307
6	0x3eaa3c91	0.33249334
7	0x3e8f9f68	0.28051305
8	0xbdbe9088	-0.09304911
9	0x3f318190	0.6933832
10	0x3f4feb4e	0.8121842
11	0xbebd1cbb	-0.36935982
12	0x3f278140	0.65431595
13	0x3f02c1f0	0.51077175
14	0x3f09a35c	0.5376489
15	0x3e9a7245	0.30165306
16	0xbd2c2a60	-0.0420326
17	0x3f28f712	0.66002
18	0x3f95d72e	1.1706293
19	0xbf2d4dcb	-0.6769683
20	0x3edacec7	0.42735884
21	0x3f99d437	1.2017888
22	0x3ed800b4	0.42188036
23	0x3f422f27	0.758532
24	0x3d3e2b58	0.046428055
25	0xbb911cf0	-0.0044284984
26	0xbef36df6	-0.4754483
27	0x3fa0941c	1.2545199
28	0xbf8579ef	-1.0427836
29	0x3f29dcf3	0.66352767
30	0xbfbc81d7	-1.4727124
31	0x3f8beb99	1.0931274

encoder.4.bias f4 [4]
0	0xbef4a724	-0.47783768
1	0x3ddbd719	0.10734386
2	0x3d6e3bbf	0.058162447
3	0x3e0ab6a2	0.13546231

bottleneck.weight f4 [4, 4]
0	0xbf8fb6cc	-1.122766
1	0xbec49c3f	-0.38400456
2	0xbe072042	-0.13195899
3	0x3fb4e93f	1.4133681
4	0xbf04854f	-0.5176591
5	0x3f32fafa	0.6991421
6	0x3fb7ee57	1.436961
7	0x3f1c8f20	0.6115589
8	0xbf8d2099	-1.1025573
9	0x3ea1e226	0.3161785
10	0x3f2d4b64	0.6769316
11	0xbf82516a	-1.0181096
12	0xbf8288a0	-1.0197945
13	0xbf216647	-0.6304669
14	0xbf79a991	-0.9752436
15	0x3f55516e	0.83327377

bottleneck.bias f4 [4]
0	0x3ece542f	0.40298602
1	0xbff03c4e	-1.8768404
2	0x3f997feb	1.1992162
3	0x3dfca315	0.12335793

decoder.0.weight f4 [8, 4]
0	0xbf92688f	-1.1438159
1	0xbdc5435f	-0.09631991
2	0x3eb8b5c3	0.36076173
3	0xbf2bf160	-0.67165184
4	0xbec6eed4	-0.38854086
5	0x3ef55df1	0.47923234
6	0x3fb377cf	1.4020938
7	0xbe904716	-0.28179234
8	0x3fd326ba	1.6496193
9	0x3eab67c2	0.33477598
10	0xbf66ca91	-0.9015284
11	0x3f2d96e0	0.6780834
12	0xbe54ce0d	-0.20781727
13	0x3f7aa7e8	0.97912455
14	0xbef4a54d	-0.47782364
15	0xbf66946a	-0.9007021
16	0xbfb34ba1	-1.4007455
17	0xbe41805e	-0.18896624
18	0x3f096add	0.53678685
19	0xbf67c191	-0.90529734
20	0xbf81bf22	-1.0136454
21	0xbe74b0ed	-0.23895617
22	0x3ebf0880	0.37311172
23	0xbf76f9ba	-0.964748
24	0x3e307c45	0.17234905
25	0xbfa8daca	-1.3191769
26	0x3bd73782	0.0065678963
27	0x3f85ac15	1.044314
28	0x3f07375c	0.52818847
29	0x3f2677a6	0.6502632
30	0x3f22bb95	0.6356748
31	0xbf3e405b	-0.7431695

decoder.0.bias f4 [8]
0	0xbfbb27cb	-1.4621519
1	0xbdd8c5f7	-0.10584634
2	0xbf92fbda	-1.1483109
3	0xc0151406	-2.3293471
4	0x3eb0f933	0.34565124
5	0x3f0edb04	0.5580294
6	0x3f929124	1.1450543
7	0x400e4189	2.22275

decoder.2.weight f4 [16, 8]
0	0x3f0c437e	0.54790485
1	0x3ea3bf02	0.31981665
2	0x3e984315	0.2973868
3	0x3ecfb98b	0.40571246
4	0x3ef3a98a	0.47590286
5	0x3ede1bd6	0.43380612
6	0x3eb0960b	0.34489474
7	0xbeac0b82	-0.3360253
8	0xbf23321d	-0.6374834
9	0x3e5dc379	0.21656598
10	0x3ecaff64	0.39647973
11	0x3d06d286	0.032915615
12	0xbd864a4e	-0.06557141
13	0x3f32c00e	0.698243
14	0x3dbb11b8	0.09134239
15	0xbe8c70ae	-0.27429718
16	0xbefb0dd1	-0.4903398
17	0x3f798bdd	0.9747904
18	0xbe666d30	-0.22502589
19	0x3eed8089	0.46387127
20	0xbe0baddb	-0.1364054
21	0x3f07102f	0.5275907
22	0x3fa81d3f	1.3133925
23	0x3e9d758d	0.30753747
24	0x3f0868eb	0.5328509
25	0x3ed9e190	0.42554903
26	0xbe4ec530	-0.20192409
27	0x3f4d6b0b	0.8024146
28	0xbd90717f	-0.07052898
29	0xbefa7b27	-0.48922083
30	0x3fb27c32	1.3944151
31	0x3eb1858c	0.346722
32	0x3f0f8793	0.56066245
33	0xbea1f933	-0.31635436
34	0xbf1c7c7e	-0.6112746
35	0x3f0478ee	0.51747024
36	0x3f757552	0.9588214
37	0x3e8f5211	0.279923
38	0x3e458670	0.19289565
39	0x3e845f20	0.25853825
40	0xbe5a360b	-0.21309678
41	0xbe549f3c	-0.20763868
42	0xbdedebc4	-0.11617234
43	0xbe67c23f	-0.22632693
44	0xbe7b8c3f	-0.24565218
45	0x3d5316c8	0.051535398
46	0xbe97c984	-0.29645932
47	0xbe1be99a	-0.1522583
48	0xbe0e638f	-0.13905166
49	0x3e98fda7	0.2988102
50	0x3f2c141b	0.6721818
51	0xbe4f4cec	-0.20244187
52	0x3d05a0c5	0.032624025
53	0x3e1f7e7d	0.15575595
54	0xbf699884	-0.91248345
55	0x3dfa0c25	0.12209348
56	0x3ec423f6	0.38308686
57	0x3f07dc12	0.53070176
58	0xbf3a51d8	-0.72781134
59	0x3f37f82a	0.71863043
60	0xbe5ef810	-0.21774316
61	0xbe94e826	-0.29083365
62	0x3e0d01e1	0.13770248
63	0x3dfcd085	0.123444594
64	0x3eca437c	0.39504611
65	0x3f2fb1d6	0.6863073
66	0x3dacf353	0.08444848
67	0xbe326eb6	-0.17425045
68	0x3da8a5fd	0.08234785
69	0x3f3c8edb	0.7365548
70	0xbf1dce10	-0.6164255
71	0x3ebd1eaf	0.36937472
72	0x3e6d7eba	0.23192874
73	0xbea3ab80	-0.31966782
74	0xbe25678e	-0.16152784
75	0xbce95200	-0.028481483
76	0xbe9e457a	-0.3091238
77	0x3e439f6a	0.1910378
78	0x3df99900	0.121873856
79	0xbe847910	-0.25873613
80	0xbeccf598	-0.40031123
81	0x3e1aa4c3	0.15101914
82	0xbedf3329	-0.4359372
83	0x3c4a2b82	0.012339475
84	0xbe2e9dba	-0.17052355
85	0x3e13222c	0.14368504
86	0xbf5e9b5b	-0.86955804
87	0x3f032873	0.51233596
88	0xbf7ce36b	-0.9878451
89	0xbb99f254	-0.004698077
90	0x3d18d356	0.03731092
91	0x3e832101	0.25611117
92	0xbe5d9b92	-0.21641377
93	0xbf733725	-0.9500602
94	0xbea689cd	-0.3252701
95	0x3f01a6e0	0.50645256
96	0x3da2c728	0.07948142
97	0x3d7ee410	0.062229216
98	0xb9c587c2	-0.00037675916
99	0xbd54cce8	-0.051953226
100	0x3e41de7e	0.1893253
101	0xbe84db04	-0.25948346
102	0xbe6095c5	-0.21932133
103	0xbe8aa75c	-0.2708081
104	0xbf82cfc8	-1.021966
105	0xbf279ca1	-0.6547337
106	0x3e45808a	0.19287315
107	0x3f50014e	0.8125199
108	0xbf90d764	-1.1315732
109	0xbf82cc2b	-1.0218557
110	0x3e69f035	0.22845538
111	0xbd1faaa4	-0.038981095
112	0xbd9f33cc	-0.07773551
113	0x3ecabcf4	0.39597285
114	0xbf464d6a	-0.77461874
115	0x3e3ba782	0.18325618
116	0x3eb6870c	0.35649908
117	0x3e4f9ea0	0.20275354
118	0xbdffeeae	-0.124966964
119	0x3ed188be	0.40924639
120	0xbf11d16a	-0.56960166
121	0x3e94b3c5	0.29043403
122	0xbfcd6bcb	-1.6048521
123	0x3f320af2	0.6954795
124	0x3e8238b6	0.25433892
125	0x3dec00e2	0.11523606
126	0xbf3383f8	-0.70123243
127	0x3ec5804e	0.3857445

decoder.2.bias f4 [16]
0	0xbfb8fa33	-1.4451355
1	0x3d83c9d7	0.06434982
2	0xbe72494a	-0.2366077
3	0x3f10e770	0.56603146
4	0x3f603ec7	0.8759579
5	0xbdc136f0	-0.094343066
6	0x3f7963be	0.9741782
7	0xc000e982	-2.0142522
8	0x3e33f627	0.17574368
9	0xbe22e71d	-0.15908475
10	0x4005b366	2.0890746
11	0x3f79d99f	0.9759769
12	0xbc92e13e	-0.01792967
13	0xbf3d44e9	-0.73933274
14	0x3eb0ae7c	0.3450812
15	0x3fb01d1f	1.3758887

decoder.4.weight f4 [18, 16]
0	0x3d734c3f	0.059398886
1	0x3da088ca	0.078385904
2	0xbe876fb9	-0.26452425
3	0x3e12c70d	0.14333744
4	0xbeb1001e	-0.34570402
5	0xbe3e3300	-0.18574142
6	0xbdaa975c	-0.08329651
7	0x3eb7da92	0.35908943
8	0x3dc30068	0.09521562
9	0x3d2c1ed0	0.042021573
10	0xbee0d183	-0.43909845
11	0xbcdcb921	-0.026943745
12	0xbe21d800	-0.15805054
13	0xbcf8c01f	-0.030365048
14	0x3ea1e3c0	0.31619072
15	0xbdc816a8	-0.09769946
16	0xbcff936c	-0.031198226
17	0xbcc53410	-0.024072677
18	0x3d102275	0.03518911
19	0x3b1e79ad	0.002418141
20	0x3dc201af	0.09472977
21	0x3e575298	0.21027601
22	0x3cfeacdc	0.031088285
23	0xbe1395c1	-0.14412595
24	0xbd3356fc	-0.043784127
25	0xbdb9f3f0	-0.090797305
26	0x3e3522af	0.17689012
27	0x3b03544a	0.0020039254
28	0xbe76ae84	-0.2409001
29	0x3b67692c	0.003531049
30	0x3c80621c	0.015671782
31	0xbc8d5865	-0.017254064
32	0x3c8b10b0	0.01697573
33	0xbe88c1f8	-0.26710486
34	0x3d03be78	0.032164067
35	0x3ce05ec7	0.027388943
36	0x3c2bdd8c	0.010489833
37	0xbe2d07ce	-0.16897509
38	0x3e465699	0.19368972
39	0x3cff41e5	0.03115935
40	0xbe4d7273	-0.2006319
41	0x3d494a98	0.049143404
42	0xbdc7cfff	-0.09756469
43	0xbbf620fd	-0.0075112567
44	0xbdfda9e7	-0.12385922
45	0xbd4cc707	-0.049994495
46	0x3e624147	0.22095214
47	0xbdf444ff	-0.119272225
48	0x3e0298f0	0.12753654
49	0x3e75987c	0.2398395
50	0xbe98a6c8	-0.29814744
51	0x3e6c3b5c	0.23069519
52	0x3dbb1e2a	0.09136613
53	0xbe3a94be	-0.18220803
54	0xbd9b00d5	-0.07568518
55	0x3f2bdae4	0.67130876
56	0xbe2bf80d	-0.16793843
57	0x3e32c6fc	0.17458719
58	0xbf6fb755	-0.9363912
59	0x3ed55a0e	0.4167027
60	0xbd02c51b	-0.031926256
61	0xbed5f5bd	-0.41789046
62	0xbe232472	-0.15931872
63	0xbdef2714	-0.116773754
64	0xbe9a403a	-0.30127126
65	0xbe0506ec	-0.12990922
66	0x3d29e2a4	0.041475907
67	0xbe2c29cb	-0.16812818
68	0xbc9cae82	-0.01912618
69	0xbe6517c2	-0.22372344
70	0xbd2fb998	-0.042901605
71	0xbd095001	-0.033523563
72	0xbdfa3c2f	-0.1221851
73	0x3dfdb0b0	0.12387216
74	0xbe8796fc	-0.2648238
75	0xbf242f6a	-0.6413485
76	0x3e28864d	0.16457482
77	0x3f62fa4e	0.88663185
78	0x3d517348	0.05113533
79	0x3f0e9aca	0.5570494
80	0xbd8c34be	-0.06845997
81	0x3e1fc2f8	0.15601718
82	0x3edcb7be	0.43108934
83	0xbd701a0c	-0.05861859
84	0xbe99fede	-0.3007726
85	0xbdcd3ca0	-0.10021329
86	0x3d0a44fb	0.03375719
87	0x3e4ae630	0.19814372
88	0x3e1274fe	0.14302441
89	0xbbb09dc0	-0.005389899
90	0xbf1ddd56	-0.61665857
91	0x3bb0f37a	0.0054001184
92	0xbe594fbd	-0.21221824
93	0xbe054d64	-0.13017803
94	0x3d6e52fb	0.058184605
95	0xbdaa41f7	-0.08313363
96	0x3f052c0e	0.5202035
97	0xbedf5218	-0.4361732
98	0xc00d4f4f	-2.2079656
99	0xbd45f63d	-0.048330534
100	0x3e033367	0.12812577
101	0x3d58a158	0.052888244
102	0xbda0d6c4	-0.07853463
103	0x3f12c232	0.5732757
104	0xbed35a02	-0.41279608
105	0x3e1b391c	0.15158504
106	0x3f37fd55	0.7187093
107	0xbf21434c	-0.6299331
108	0x3dd79fd1	0.105285294
109	0x3f9f006a	1.2422001
110	0x3eb06bbf	0.34457204
111	0x3f4e530b	0.80595464
112	0xbd3e6717	-0.046485033
113	0xbe85f644	-0.26164448
114	0x3cf23fdc	0.029571466
115	0x3f110145	0.5664256
116	0x3e335dfe	0.17516324
117	0x3e5198f0	0.20468497
118	0xbea65a95	-0.32490984
119	0x3e83cd44	0.25742543
120	0xbe13bde8	-0.14427912
121	0xbdc15e7c	-0.094418496
122	0xbf7e9a9d	-0.9945467
123	0x3ed5e509	0.41776302
124	0x3e0844b4	0.13307458
125	0xbe990270	-0.29884672
126	0xbd2fb722	-0.04289926
127	0xbea073f4	-0.31338465
128	0xbee974ba	-0.45596868
129	0xbfc094f5	-1.5045458
130	0xbed3942c	-0.41323984
131	0xbfb08d99	-1.3793212
132	0xbf259142	-0.6467477
133	0x3e5a5f44	0.21325403
134	0xbfb6dc19	-1.4285918
135	0xbed0ddb7	-0.40794155
136	0xbec0203d	-0.37524596
137	0xbcbedd30	-0.02329883
138	0xbf305b8d	-0.68889695
139	0xbf7b18d3	-0.98084754
140	0xbe1d1442	-0.15339759
141	0xbf6af7ac	-0.9178417
142	0xbee7d3eb	-0.45278868
143	0xbe1e48dd	-0.15457483
144	0xbf3d87b3	-0.74035186
145	0xbfce3cad	-1.6112267
146	0xbf33f966	-0.70302427
147	0xbf9f7ba2	-1.2459605
148	0xbf2c4a6c	-0.6730106
149	0xbd640de0	-0.055677295
150	0xbf9ffde2	-1.2499354
151	0x3b770247	0.0037690566
152	0xbeea0863	-0.45709524
153	0x3b62f300	0.0034629703
154	0xbf57ab55	-0.84245807
155	0xbf492c0d	-0.7858284
156	0x3e1a9c7a	0.15098754
157	0xbf24938b	-0.6428763
158	0xbe1630e5	-0.1466709
159	0xbe4c6c86	-0.19963273
160	0xbf1cc275	-0.6123422
161	0xbfc377d8	-1.5270948
162	0xbed21bb3	-0.41036758
163	0xbfaf42b0	-1.3692226
164	0xbf4e31e8	-0.805449
165	0xbddfa2fc	-0.10919759
166	0xbfa6cdf5	-1.3031603
167	0xbe131e9a	-0.14367142
168	0xbf20cdd3	-0.6281406
169	0x3e3440c2	0.17602828
170	0xbf50d064	-0.8156798
171	0xbf86b361	-1.0523492
172	0x3e2e7200	0.17035675
173	0xbf77b6d8	-0.9676337
174	0xbdfa91ff	-0.12234878
175	0xbeec1754	-0.46111548
176	0xbe6a268f	-0.22866271
177	0xbe9cc969	-0.30622414
178	0xbf6e9e88	-0.9321065
179	0x3ea07065	0.3133575
180	0xbfe4dac3	-1.7879261
181	0xbd91de20	-0.07122445
182	0x3d929dcd	0.07159004
183	0x3d3818ca	0.044945516
184	0xbeff9aa2	-0.49922663
185	0xbe0014c8	-0.12507927
186	0x3f646762	0.8922025
187	0x3f3dd736	0.7415651
188	0xbe15bf87	-0.14623843
189	0xbe17fc96	-0.14842448
190	0x3f76e1f3	0.9643852
191	0x3faac22c	1.3340507
192	0x3f3d4cd2	0.73945343
193	0x3d7d0904	0.061776176
194	0x3ef1dc3f	0.47238347
195	0xbe46b6ab	-0.1940562
196	0x3fc9c4ad	1.5763146
197	0xbd8d7d78	-0.06908697
198	0xbe89c047	-0.26904508
199	0xbe537f39	-0.20654
200	0xbe3bd8ea	-0.18344465
201	0x3e7ea7a2	0.24868634
202	0xbe15763a	-0.14595881
203	0xbf6b06cb	-0.9180724
204	0xbe43af0f	-0.19109748
205	0x3f26eb94	0.65203214
206	0xbebf552c	-0.37369668
207	0xbf9f6dac	-1.2455344
208	0x3f0b11a8	0.54323816
209	0x3f8917dd	1.0710407
210	0x3f75ae71	0.959693
211	0x3f452c8c	0.770211
212	0x3e8356d7	0.2565219
213	0xbce62af0	-0.028096646
214	0xbe128397	-0.1430801
215	0xbf89739c	-1.0738406
216	0xc024bc9d	-2.574012
217	0xbdb64f6c	-0.08901867
218	0x3f8e701e	1.1127965
219	0xbfb91f67	-1.4462708
220	0x3e7eee06	0.24895486
221	0xbf0440c8	-0.5166135
222	0xbeafa3cc	-0.34304655
223	0xbf055e97	-0.5209746
224	0x3f5a1de9	0.8520189
225	0xbf61e45e	-0.88239086
226	0xbea785e4	-0.32719338
227	0x3e01e08d	0.12683316
228	0xbf91c1ca	-1.1387265
229	0x3cc9b750	0.024623543
230	0xbef419e1	-0.47675994
231	0x3ef89ef8	0.48558784
232	0xbf4bbe1b	-0.7958695
233	0x3e2e1b52	0.1700261
234	0xbf88d8c1	-1.0691148
235	0xbed581a8	-0.41700482
236	0xbd141b29	-0.036158714
237	0x3fd3a194	1.6533685
238	0xbe4af05a	-0.1981825
239	0xbed9215d	-0.42408267
240	0xbf4eb82b	-0.8074977
241	0xbe5beb6f	-0.2147653
242	0xbe6ef2d3	-0.23334818
243	0xbfc0d252	-1.5064185
244	0x3ec6a92d	0.38800946
245	0x3daaa120	0.083315134
246	0x3e8f55e6	0.27995223
247	0x3fa969dc	1.3235431
248	0x40130440	2.2971344
249	0xbdc42bbc	-0.09578654
250	0x3ea50075	0.3222691
251	0x3fbf4ff9	1.4946281
252	0xbe22e3b1	-0.1590717
253	0xbf963d60	-1.173748
254	0x3ef4f141	0.47840312
255	0x3f771d96	0.9652952

decoder.4.bias f4 [18]
0	0xbe2a22c1	-0.1661482
1	0xbe8fb821	-0.28070167
2	0x3ea3bfcb	0.31982264
3	0xbf21ac9e	-0.6315402
4	0x3f8859e7	1.0652436
5	0xc01cdead	-2.451091
6	0xbfdf2f82	-1.7436373
7	0xbf7da4da	-0.9907967
8	0xbf5870a8	-0.845469
9	0xbf1592a4	-0.5842688
10	0xbf108c6c	-0.56464267
11	0xbe6c91f8	-0.23102558
12	0xbeaa0a74	-0.332111
13	0x3f92f247	1.1480187
14	0xc06e0bdc	-3.7194738
15	0x3f1ab197	0.6042723
16	0x3f99138e	1.1959093
17	0xbff48177	-1.910201
