results/16_8_4_FDS_42/M_16_8_4_FullDS.pth (torch, 9561 bytes, 14 tensors)

encoder.0.weight f4 [16, 18]
000000 60 36 99 3e 8c a0 f4 3e 2e ff a7 3b 00 92 07 3e
       0.29924297 0.47778738 0.0051268553 0.13239288
000010 2f 71 f1 bd b7 4d 44 3e 0a 18 e1 3e ba a4 aa be
       -0.11789166 0.19170271 0.43963653 -0.333288
000020 19 af 4e bc bb 0d 8c bd a0 7e 59 bc cd be e1 3e
       -0.012614989 -0.068385564 -0.013274819 0.44090882
000030 07 5c a7 be 07 6e f6 3f 80 ec e8 3f fe db 86 be
       -0.326874 1.9252328 1.8197174 -0.26339716
000040 48 93 3d bd f8 cc a2 3e 30 0c df 3e 9b 64 e0 3e
       -0.046283036 0.31797004 0.43563986 0.43826756
000050 d3 7c bb bc 6a 5b 58 3d 0e 6b b6 3e f1 b3 e4 bb
       -0.02288667 0.052821554 0.3562855 -0.0069794585
000060 0f e9 00 3d 11 4c b2 3e 11 61 68 3e 1a 8c 3e be
       0.031472262 0.3482366 0.22693278 -0.18608132
000070 17 e5 22 3e e4 e2 ce 3e 9c 30 19 3d d8 73 4a 3e
       0.15907703 0.4040748 0.037399873 0.19770753
000080 63 4a a1 bf ef a4 6a 3f 7c 3f ae 3e c5 c8 23 be
       -1.2600826 0.9165792 0.3403281 -0.15994556
000090 96 68 97 3e 0d 2d 58 3f c7 97 b8 3c 5f 6e 9a 3d
       0.2957198 0.8444374 0.02253331 0.07540583
0000a0 e2 52 58 3f bf 90 c7 bd 90 4d e3 3e 40 0f 4b 3c
       0.8450147 -0.09744405 0.44395113 0.012393773
0000b0 ff 8f 8f be 7d 6b 6f be fb c9 16 3e 31 bc 8e 3d
       -0.28039548 -0.23380847 0.14725487 0.069694884
0000c0 08 9c 22 3f 1a f5 28 3f 11 57 b0 3f ed ed 62 bf
       0.63519335 0.65998995 1.377657 -0.88644296
0000d0 8f 9c c3 bd 42 89 16 bb 87 6e 8a bf 86 ab 47 bd
       -0.095513456 -0.0022969996 -1.081498 -0.048747562
0000e0 a1 ff e8 3c 8b ad 26 3f 9d ea e6 3e 36 05 77 3f
       0.028442206 0.65108556 0.4510087 0.96492326
0000f0 b4 05 91 bf 71 ea 36 3f e2 9f 5a bd 6f 1c 3e 3e
       -1.1329865 0.7145148 -0.053375132 0.18565534
000100 00 f0 29 b8 ae 7b 91 be df ce d2 3e 25 93 1f c0
       -4.0516257e-05 -0.28414673 0.41173455 -2.493356
000110 a7 3d e3 3c 5b 13 ae be 06 25 c2 3e c0 6a 62 bf
       0.027739359 -0.33999142 0.37918872 -0.8844414
000120 ce a5 b0 bf cc 25 dd bd 35 87 3d 3e 16 67 9a 3f
       -1.38006 -0.10798225 0.18508609 1.2062709
000130 1d 40 72 3f eb 9a e6 3d 87 c3 b3 bf e8 7b 74 3f
       0.9462908 0.11260017 -1.4044045 0.95501566
000140 30 d5 2c be 16 3f 19 3e e0 88 a6 3b 7b c1 b2 bf
       -0.168782 0.14965472 0.0050822347 -1.3965296
000150 db 2b 14 3f 32 c5 94 bf b4 1d e0 3e 3f ed 6c bf
       0.5787942 -1.1622679 0.43772662 -0.9254951
000160 de a6 b1 3d 3b ef 9a bf 3f bd 80 bf 75 4b cc 3e
       0.086744055 -1.2104257 -1.0057753 0.3990132
000170 de 6d 84 bd e5 6a 60 be 98 14 8e 3f 32 61 1c 3f
       -0.06466268 -0.21915777 1.1100035 0.6108581
000180 dd 85 c9 bf b2 e5 74 3f a2 82 47 be ba 7e 7e be
       -1.5743977 0.9566299 -0.19483426 -0.2485303
000190 84 33 2f be c1 8f d7 be 79 2d 9b 3e 19 6a ed bd
       -0.17109495 -0.42101863 0.3030813 -0.11592502
0001a0 b8 2c ff 3e 13 9d 2c bf 36 f8 db 3e f6 78 8f bf
       0.49838805 -0.67427176 0.42962807 -1.1208789
0001b0 18 cd 1f 3f 3a f5 10 3f 60 6f e5 3d a1 32 8f bd
       0.62422323 0.56624186 0.11202884 -0.069920786
0001c0 a2 7a 96 be a3 f3 20 3d 48 30 74 3f 8c a0 a5 be
       -0.29390436 0.03929485 0.9538617 -0.3234905
0001d0 f0 9a a5 bd c1 c6 01 be 72 ab 44 be 95 70 fa 3e
       -0.080861926 -0.12673475 -0.19206026 0.48914018
0001e0 e1 7e f9 be 97 12 2a be 51 d0 e4 3f b7 9e 39 bd
       -0.48729613 -0.16608654 1.7876073 -0.045317378
0001f0 a8 bc 14 be ff f1 be 3f 1f 88 80 bf 91 87 6f 3e
       -0.14525092 1.4917601 -1.0041541 0.23391558
000200 70 69 84 bd 56 60 f9 3e 85 10 3b 3e db 7f 1e 3f
       -0.06465423 0.4870631 0.1826802 0.6191384
000210 68 d4 df bf f7 c3 80 3f 41 3c 89 3c 7d 4a 05 be
       -1.7486696 1.0059804 0.016752364 -0.13016696
000220 46 68 0b be d4 23 66 be 33 bc 36 3f 7a 11 9c 3d
       -0.13613996 -0.22474605 0.7138092 0.07620521
000230 73 47 af 3f 5a 97 70 bf 47 8f 3f 3d 9d 5e ed bf
       1.369368 -0.93980944 0.0467675 -1.8544499
000240 5d 9f 9b bc af 28 2a 3e 9d 64 7b 3e e4 32 76 bd
       -0.018996889 0.16617082 0.245501 -0.060107127
000250 cf 52 9a 3e 90 44 2e 3e 90 45 15 be 5b 29 90 3e
       0.30141303 0.17018342 -0.14577317 0.28156552
000260 9b 22 a9 bc 8b f2 b3 bb 05 8f 6f be 12 31 bb 3e
       -0.020646384 -0.00549156 -0.23394401 0.36560875
000270 34 7c d4 3e ca 76 99 bf 99 cf 98 bf bf 14 cf 3e
       0.4150101 -1.1989377 -1.1938354 0.40445516
000280 f0 03 2f 3f 4c c6 70 be 1f 80 23 bf e0 23 15 be
       0.68365383 -0.23513144 -0.6386737 -0.14564466
000290 d2 20 7b be 06 e5 4a 3f c8 f4 4f 3f bd 47 e3 3e
       -0.24524239 0.7925571 0.8123288 0.4439067
0002a0 c1 5f 6d bf be 82 8e 3e 2b 54 aa bd fb 18 15 3e
       -0.92724234 0.27834123 -0.08316835 0.1456031
0002b0 96 14 56 be 20 2b ae bf a6 4f 1c 3f f5 41 a8 bf
       -0.2090629 -1.3606911 0.61059034 -1.3145128
0002c0 48 ca be bf 31 97 1b bd f9 54 8c 3d 25 22 48 bf
       -1.4905481 -0.037985984 0.06852145 -0.781771
0002d0 f9 9f aa 3e cd 0f f5 bb 70 84 9c 3e 51 7a 88 3f
       0.33325174 -0.0074786902 0.30569792 1.0662328
0002e0 05 73 08 3f e3 a6 ad 3e a0 a5 5e bf 6f 09 1c 3f
       0.53300506 0.33916387 -0.86971474 0.60951895
0002f0 18 5a db bd 32 f7 c3 bd 6c 81 4c bd 71 ce 1a be
       -0.107105434 -0.09568633 -0.049928114 -0.15117814
000300 d6 1b d3 3e e5 3d c0 be af 2a 47 3f 16 40 7b be
       0.41232175 -0.37547222 0.77799505 -0.24536166
000310 cb 8f 58 3e e9 c2 2c bf bd c5 16 be 52 30 82 3d
       0.21148603 -0.6748491 -0.14723869 0.063568726
000320 e7 ac 6c 3e 04 d8 47 3e 3d 22 b3 3e 1b a9 c7 bc
       0.23112832 0.19515997 0.3498706 -0.024372628
000330 a5 2a 3e bf c3 b9 7a 3f f3 5f 16 3e 53 33 4c be
       -0.7428382 0.979397 0.14685039 -0.19941454
000340 6b 4a 4b 3e 2d 51 a3 3f 16 39 38 bf ab dc 14 3f
       0.19852607 1.2759148 -0.71962106 0.5814921
000350 65 34 68 3f 6d 8a 22 3d 30 61 d9 3e 2f 38 0f bf
       0.9070495 0.039682794 0.4245696 -0.55945104
000360 31 e3 c2 bd 7d a9 9f 3e b7 e6 4b 3e 40 5c 85 3d
       -0.095159896 0.31183997 0.1991223 0.06511736
000370 ed bd 1b 3f ee e5 11 3c 0d 05 dd 3e c8 e9 b0 3e
       0.6083668 0.008904917 0.43167916 0.3455336
000380 f5 22 94 3d 99 cb 28 3e f6 87 e0 3d 44 49 9d bd
       0.0723323 0.16483916 0.109634325 -0.0767999
000390 23 3a 84 3e 79 4c e0 bd c2 99 2a c0 f6 1e 09 3f
       0.25825605 -0.10952086 -2.6656346 0.5356287
0003a0 1a 02 db 3e b2 49 2c 3f 20 a1 4e be e6 13 80 3d
       0.4277504 0.6729995 -0.20178652 0.06253795
0003b0 7b c7 f6 3d 1a 20 c9 3e c2 85 75 be 0f 8b 31 3f
       0.12049767 0.39282304 -0.23976806 0.6935281
0003c0 4e 62 d3 bf c9 15 64 3f aa c2 38 3e 7f 55 28 be
       -1.6514375 0.8909574 0.18043008 -0.16438864
0003d0 80 7e 6c 3b 1d 15 6f 3e 23 ef 57 be 98 73 5a bf
       0.0036086142 0.23347898 -0.21087317 -0.8533263
0003e0 e7 d4 a2 3f e8 a9 1a be b9 f8 af bd 26 be ac bf
       1.2721223 -0.15103877 -0.08592362 -1.3495529
0003f0 c7 f1 a1 3f d0 8d 9c 3e 6a fb aa 3e 33 d0 7b 3f
       1.265191 0.30576944 0.3339494 0.9836456

encoder.0.bias f4 [16]
000000 cd e0 97 3f e5 da 08 3f bc e0 f7 3e af 6f 17 bf
       1.1865479 0.53459007 0.48413646 -0.5915479
000010 ff 38 3a bf cb f6 0a be f1 5a 97 3f f7 34 7b bd
       -0.7274322 -0.13570707 1.1824628 -0.061329808
000020 95 22 54 be 57 61 52 bf 79 04 20 3e db ca 9e 3e
       -0.20716317 -0.8217978 0.15626706 0.3101414
000030 2e 74 50 3e f6 d8 9f 3e 23 db 84 3f 5a 9e 40 be
       0.20356819 0.31220216 1.0379375 -0.18810406

encoder.2.weight f4 [8, 16]
000000 9a f7 ab bf 89 7e 30 be 2d 37 36 be dd 18 75 3f
       -1.3434937 -0.1723577 -0.17794485 0.95741063
000010 8a 22 e0 3f 69 98 34 3f cb 0a b7 bf 05 a1 3a 3f
       1.751054 0.7054506 -1.4300169 0.72901946
000020 21 73 63 3f 6e 15 96 3f 29 91 2b 3f da 5d 0a 3f
       0.8884755 1.172529 0.6701837 0.54049456
000030 ba f7 00 be b9 8c c6 3e f9 ea 85 bf 3a 00 4e 3f
       -0.125945 0.38779238 -1.0462333 0.80469096
000040 ff b5 c9 3e 3e 1b 6a 3f 4a 2d 63 bf cb 13 40 3f
       0.39396665 0.9144782 -0.8874098 0.750302
000050 07 66 cf 3e 11 6a 34 3e 5f f4 89 3e 57 50 7a 3f
       0.40507528 0.17618586 0.26944253 0.9777884
000060 16 af 1a bf 30 76 f9 bd 08 ba 16 3f b4 bf 85 3f
       -0.6042341 -0.121807456 0.5887761 1.0449128
000070 28 5c 1e 3f 42 bf 6d 3f 19 1e 67 bd da ba 24 3f
       0.6185937 0.9286996 -0.056425188 0.6434761
000080 e1 48 59 bf 76 3e 98 3d fb a2 89 bf 93 9d b8 3f
       -0.8487683 0.074337885 -1.0752863 1.4423088
000090 f6 0e f3 3e 85 1c 6e 3e 79 6d 4f bf b9 6c 91 3f
       0.47472352 0.23253067 -0.81026417 1.1361305
0000a0 75 45 39 3e 13 ad ec 3e 2e 78 e1 3e 5b 30 8e 3e
       0.18092902 0.46225795 0.44037002 0.27771267
0000b0 9b c3 50 bd eb 6f 89 3f 25 5d 51 bf 92 8f 8a 3e
       -0.050967794 1.073728 -0.8178275 0.2706266
0000c0 ec 50 4e 3f c6 fa 11 bf 2e ee 96 3f 22 45 dd 3c
       0.80592227 -0.57023275 1.1791437 0.027010504
0000d0 f9 90 50 3f 5b 17 44 3f fc 7b 25 3f be e6 92 3f
       0.8147121 0.7659814 0.6464231 1.1476667
0000e0 69 f8 8c bf b1 57 89 3d 4e 22 d8 bc 42 88 51 3f
       -1.1013309 0.06706179 -0.026383545 0.8184854
0000f0 9c 5d 60 bf 8e 8d c5 3e c9 6f 8c 3f fa 11 1e 3f
       -0.87642837 0.3858456 1.0971614 0.6174618
000100 49 39 b8 3e aa 19 46 3e 6a 8b b7 bb ad b3 2e be
       0.35981205 0.19345728 -0.0056013362 -0.17060728
000110 e4 94 57 bf b0 8a 61 be 8f 4d a7 3f 04 8d c7 3e
       -0.84211564 -0.22025561 1.3070544 0.38974774
000120 70 b2 9b be fd 94 44 3f 54 5f 4d bf 78 dd 60 3f
       -0.30409575 0.7678984 -0.80223584 0.87837934
000130 dd b7 7d be 19 e3 d5 3d 5e 56 97 3e 36 76 47 3e
       -0.2477717 0.10443706 0.2955808 0.19478688
000140 0e 3b 3d bf 8b 93 35 3f d1 23 3d bf a0 e6 65 3e
       -0.73918235 0.7092826 -0.73882776 0.22451258
000150 a5 09 c2 3d 2b ae 5c bc 8f fb 1d bf 8f 1a 81 3e
       0.09474496 -0.013469259 -0.6171197 0.25215575
000160 9d 53 76 3f 9f a9 16 3f e9 25 8f 3e 70 a3 16 3f
       0.96221334 0.5885257 0.2795861 0.58843136
000170 69 52 20 3f a1 72 04 bb 2c ce 4a bf 04 59 d5 3e
       0.6262575 -0.0020209926 -0.79220843 0.41669476
000180 18 6b 94 bf 6b b0 ec 3e 9c 8c 0d bc 61 fa 4b 3f
       -1.1595182 0.46228346 -0.008639481 0.7967892
000190 06 0c 13 3f 98 04 15 be 81 e0 9e bf 06 bc dd 3e
       0.5744022 -0.14552534 -1.2412263 0.43307513
0001a0 18 a1 5e bd 07 a7 8d 3f da 6f 21 3f a6 98 c0 be
       -0.05435285 1.1066598 0.63061297 -0.37616462
0001b0 22 31 25 3f 48 87 d6 be 28 bb 3b 3f de 60 79 bf
       0.64528096 -0.41900086 0.7333245 -0.9741343
0001c0 a9 65 5f bf 2f be 45 3d 9a 8b 91 be 2b e6 97 3e
       -0.87264496 0.048277076 -0.2842682 0.29667792
0001d0 71 f9 c2 3f b8 a8 7f 3f 6e b8 84 bf 45 b7 68 3d
       1.5232373 0.9986682 -1.0368783 0.056815404
0001e0 e1 ca 28 3f 13 01 8b 3f 6d fa 27 3f f3 e5 11 3f
       0.6593457 1.0859703 0.65616494 0.569915
0001f0 5c f5 6c 3e 73 ec 68 be 29 c1 8e bf 4a 0a 4c 3f
       0.23140472 -0.22746448 -1.1152698 0.797032

encoder.2.bias f4 [8]
000000 10 3d 1c bf 51 3c 58 3f fd 41 c3 be 5b c6 6c 3e
       -0.61030674 0.84467036 -0.38136283 0.23122542
000010 56 28 30 3f a5 1d 96 3e ec 47 f9 be a9 64 5b be
       0.6881155 0.29319492 -0.48687685 -0.21425118

encoder.4.weight f4 [4, 8]
000000 ef bb b6 3f ed 42 2d 3f 50 0b 32 3f 0f 8e 05 3f
       1.4276103 0.67680246 0.6954851 0.5216989
000010 48 59 66 bf bd 32 64 3e a3 7b d1 bf 9b 1d a7 3f
       -0.8997998 0.2228498 -1.6365856 1.305591
000020 87 60 9e 3e 58 87 95 3e 9b d7 5f 3f bf af b8 bf
       0.3093302 0.29204822 0.8743836 -1.4428633
000030 0d 15 0e bf 2d 09 50 3f ed c9 f2 3f 79 3b 8e 3e
       -0.5550087 0.81264 1.8967873 0.2777975
000040 91 60 27 3f 1e 62 70 3f 74 25 bb 3f 3b 3b f3 bd
       0.65381724 0.93899715 1.4620805 -0.11876532
000050 2c 7a d9 3d 49 e4 75 be bb 81 f6 be b1 22 1a 3d
       0.106190056 -0.24012865 -0.48145851 0.03763074
000060 ad d2 3d 3f 16 86 87 3e ca 89 92 3e 53 89 4c bf
       0.7414959 0.26469487 0.2862075 -0.7989704
000070 f6 10 d6 be 06 39 84 3f af 55 67 3f bd b6 3c 3f
       -0.41809815 1.0329902 0.9036512 0.73716336

encoder.4.bias f4 [4]
000000 a4 50 d1 3e 7d 34 5a 3e 72 91 4b 3f d6 97 bf b7
       0.40881836 0.21309085 0.79518807 -2.2839678e-05

bottleneck.weight f4 [4, 4]
000000 89 fd 0d bf 71 de a1 bf 9a 11 a7 bf 06 92 4d bf
       -0.5546499 -1.2646009 -1.3052247 -0.8030094
000010 68 6f 8c bf 85 c6 d3 3e ad 22 07 bf aa cd 9a 3e
       -1.0971498 0.41362396 -0.52787286 0.30235034
000020 71 3e 6e bf 75 a5 79 bd 50 d5 03 3f 05 31 a0 bf
       -0.9306403 -0.060948808 0.51497364 -1.251496
000030 05 6e 0a 3f f5 2c a8 bf 2e 0e 23 be a2 5e 39 bf
       0.54074126 -1.313872 -0.15923378 -0.72410023

bottleneck.bias f4 [4]
000000 61 64 ab 3f 08 9f f7 bc d3 b6 ca be 45 36 ce 3f
       1.3390008 -0.0302272 -0.3959261 1.6110312

decoder.0.weight f4 [8, 4]
000000 4b 55 dc bd a6 da 9e bf ec aa 3b bf e1 bd 99 3f
       -0.10758456 -1.2410476 -0.7330768 1.2011071
000010 46 f2 9d bc e9 65 d2 3e d9 32 a6 bf 6e b7 69 be
       -0.019280564 0.41093376 -1.2984267 -0.22823879
000020 01 e3 02 3e 63 af 08 3f 94 06 d3 3d 19 72 8f 3e
       0.12781908 0.5339262 0.10303989 0.28016737
000030 ce fc f3 3e 44 ed 1a bf da 32 eb be 23 20 d0 3f
       0.47653812 -0.6051829 -0.45937234 1.6259807
000040 22 1b 0f 3f 5d 02 30 bf 62 96 d1 3d e7 b9 8a 3f
       0.55900776 -0.68753606 0.10233761 1.0837983
000050 91 ed 77 bf f9 a4 4d bd 6d 75 b1 be 72 51 72 bf
       -0.9684687 -0.05020616 -0.346599 -0.94655526
000060 a4 6a bc 3c a8 52 80 3e 5d 4a 05 3e 14 7c b3 3e
       0.023000069 0.25063062 0.13016649 0.35055602
000070 48 7f 76 be 5c 05 02 be 75 92 91 bf 69 59 f8 be
       -0.24071991 -0.12697357 -1.137282 -0.48505715

decoder.0.bias f4 [8]
000000 c8 2c dd bf 60 fd 3c 3f 42 49 09 bf dc 56 14 40
       -1.7279291 0.7382412 -0.5362741 2.3178015
000010 d1 6d 82 3f 5d be 85 bf 45 e0 05 bf 4e 2f a8 3d
       1.0189763 -1.0448719 -0.52295333 0.08212148

decoder.2.weight f4 [16, 8]
000000 c8 9a 16 3f 12 e3 3a 3d e1 b7 4c be 80 39 6c 3f
       0.5882993 0.045626707 -0.19992019 0.9227524
000010 09 18 aa 3f e7 82 94 bd 9d b5 4f 3e 8e e8 32 3e
       1.3288585 -0.0725153 0.20284124 0.17471525
000020 c2 b8 0e 3f 90 44 8f bf 86 a3 00 be 86 8d 04 bf
       0.5575067 -1.1192799 -0.12562379 -0.5177845
000030 2a b6 2a 3f bf 3c 26 3f e0 ac f0 3d e7 c3 47 be
       0.6668421 0.6493644 0.11751723 -0.19508325
000040 08 ae 0a 3f 8f 9e db bd 4e a2 28 3e 4c 71 cc be
       0.541718 -0.10723602 0.16468164 -0.3993019
000050 4e bd 39 bf 88 64 1f 3e 5a 07 22 3e 39 71 89 3e
       -0.7255448 0.15565693 0.15823117 0.26844195
000060 bf 16 69 3f dc 12 da be 8a fc 38 3e c0 ac fe bd
       0.9105033 -0.42592514 0.18065086 -0.12435293
000070 a7 aa 48 bf bb 00 bf bd ff 1c 9d 3e 54 62 87 3e
       -0.78385395 -0.09326311 0.30686185 0.26442206
000080 60 0c 6b be 1d 95 ab be 7f 37 ad 3e 1e 87 7e be
       -0.2295394 -0.33512202 0.33831403 -0.2485623
000090 bc d0 9a be 28 50 35 be 52 e5 43 3e fd 59 66 be
       -0.30237377 -0.17706358 0.19130448 -0.22495265
0000a0 a4 2c 7c 3e 79 22 3f 3f 3f de 90 be 03 e1 ea 3d
       0.24626404 0.74661976 -0.2829456 0.11468699
0000b0 78 4f 72 3f 55 5b 24 3f 17 87 15 bb 62 b7 e1 3e
       0.9465251 0.6420186 -0.0022816116 0.44085222
0000c0 93 a1 0d be a7 52 a6 3e 8b 56 8f 3e cf 81 b6 3e
       -0.13831167 0.32484934 0.27995715 0.3564591
0000d0 3f 72 3c 3e 0f 34 fe 3e 79 ae 96 3c 00 36 71 bf
       0.18402956 0.49649093 0.018393742 -0.9422302
0000e0 b0 4f ce bd 5c 1b a8 bd 46 06 7c 3e 16 1f ed bd
       -0.10073793 -0.082083434 0.24611768 -0.11578195
0000f0 94 a8 a8 3d 40 a8 84 bb 24 2b a1 be b0 ed 96 bd
       0.08235279 -0.0040483773 -0.31478226 -0.07369554
000100 ee e6 ef 3e 6e e2 8a 3d 5e 66 78 be 9c b1 75 3f
       0.46855873 0.06781469 -0.242578 0.95974135
000110 ee 9d d8 3e 37 87 c6 be 09 89 5a 3e 43 a2 75 bd
       0.4230799 -0.38775036 0.21341337 -0.059969198
000120 60 9e 7b 3c 93 e1 ac 3e 39 4c 24 be 88 1c 77 be
       0.015357584 0.3376585 -0.16044702 -0.24131978
000130 a0 6e 7e bc 38 1f 40 bd 8c a8 8b be 9e ab 81 be
       -0.015529305 -0.046904773 -0.2727703 -0.25326246
000140 2a fb 00 3f 2e ec e2 be 94 cf 83 3d 56 90 65 bf
       0.50383246 -0.44320816 0.06436077 -0.89673364
000150 a6 be 18 bf 7f e7 f6 3e a0 6b 56 be 7e b2 26 bd
       -0.59665906 0.48223493 -0.20939493 -0.040697567
000160 57 5f cf be 28 4c e2 3d b2 28 3f 3e c3 20 eb bd
       -0.40502426 0.11049682 0.18667868 -0.11480858
000170 d5 52 c6 be 0a c0 4a be f2 05 00 3e e3 08 e1 3d
       -0.3873507 -0.1979982 0.12502268 0.10988023
000180 ac 8b c6 bf 81 be 8a 3f 5d 13 9d be a6 2a 94 3f
       -1.5511374 1.0839387 -0.30678836 1.1575515
000190 c9 52 a7 3f 3f cc 42 bd 78 48 90 be 27 0c 3b c0
       1.3072139 -0.047558066 -0.2818029 -2.9226167
0001a0 53 c7 ba 3e 16 7f 85 bf cc 6d 84 3d c1 59 df be
       0.36480197 -1.0429409 0.064662546 -0.43623164
0001b0 7e 4f 2c bf bf cd d5 3e 88 1f 40 3d c1 38 61 3e
       -0.67308795 0.41758534 0.04690507 0.21994306
0001c0 ab 71 e5 3e b8 b1 79 3d 4c a3 ae be 5f 4a f4 be
       0.44813284 0.0609605 -0.3410896 -0.4771299
0001d0 67 4e e9 be 6f ac 02 3f 89 b2 82 3e a1 e3 f8 3e
       -0.4556763 0.5104436 0.25526837 0.48611167
0001e0 80 04 27 3e 10 c0 95 bf d0 0b 4b 3e db f0 5b 3f
       0.1631031 -1.1699238 0.19828725 0.8591439
0001f0 2b a4 0c 3f cd af 2d bf 6c b1 8b be 60 da 10 3f
       0.54938 -0.67846376 -0.272838 0.56583214

decoder.2.bias f4 [16]
000000 79 e1 33 c0 07 c1 9b 3f ad 17 6a 40 19 72 1f 3f
       -2.8106368 1.2168282 3.657695 0.62283474
000010 60 e3 57 bd 58 30 0f c0 11 c8 11 40 f7 bf 60 be
       -0.052707076 -2.2373257 2.277836 -0.21948229
000020 50 05 9e 3f 01 7c 79 be a6 03 1e c0 6f 2d 73 3e
       1.2345371 -0.2436371 -2.4689727 0.237478
000030 f8 0a 91 3f e7 a3 92 bf 3b 7c c1 3f 0e f8 09 3f
       1.1331472 -1.1456269 1.5116037 0.53894126

decoder.4.weight f4 [18, 16]
000000 d0 db 61 bd 46 15 7f 3d 8b 0d d2 be ad f7 5c 3e
       -0.05514127 0.062276147 -0.41025957 0.21578856
000010 6c 34 86 bd 0a a0 17 3e 4c 01 2c 3f c0 d3 15 3e
       -0.065529674 0.14807144 0.6718948 0.14631557
000020 0f 37 0f bd b0 13 e6 3d 05 72 b8 3e 3c 0f a6 3d
       -0.034964617 0.11234224 0.3602449 0.081083745
000030 9c b7 d7 bd cd ca 7c be 31 43 16 be ed 75 99 bc
       -0.105330676 -0.24686737 -0.14674069 -0.01873299
000040 ce 62 30 3c 60 95 ae bc 09 4c fd 3c be e8 0c bc
       0.010765744 -0.021311462 0.030920045 -0.008600412
000050 e2 da 13 be 41 e5 a3 bc be 26 8b be 54 fc e4 bd
       -0.14438966 -0.020006778 -0.27177995 -0.1118094
000060 17 e2 06 bd f8 4c 24 3e 13 9c 01 be 8e 37 32 bd
       -0.03293046 0.16044986 -0.12657194 -0.043510012
000070 56 64 e3 3c 0d 65 ce 3d 08 5f 37 3d a9 0a c6 3c
       0.027757805 0.10077868 0.044768363 0.024175005
000080 4e 31 4d 3d 51 ea 85 3d 4f c3 ea 3c 84 5c 2c bd
       0.05009585 0.06538833 0.028657584 -0.042080417
000090 bc 76 8b bd 73 84 96 3d 6c e5 dc 3b ce 28 3b 3e
       -0.06809756 0.073494814 0.0067412164 0.18277285
0000a0 e7 1f 9a bc 78 15 15 be e9 cb d8 3d 0b 8a b3 bc
       -0.01881404 -0.14558971 0.10585768 -0.02191641
0000b0 87 68 14 bd 03 97 ce bd 5a e8 17 be 46 71 cb bd
       -0.036232498 -0.10087397 -0.14834729 -0.099337146
0000c0 66 c7 93 3c 63 0a 1a 3e b0 0d 95 be e4 b3 cb be
       0.018039417 0.15043025 -0.29112005 -0.39785683
0000d0 ec 6d 6a 3e a1 b5 04 3e 24 cb b8 3e 90 55 76 3d
       0.22893494 0.12959911 0.36092484 0.060140193
0000e0 6f 2d 42 3f 50 a5 a1 bd 7f 93 a6 3e f1 b3 68 3e
       0.75850576 -0.07892859 0.32534406 0.22724892
0000f0 d0 ac a5 be a1 05 4b 3e f4 4f 0c be 29 9a 58 bf
       -0.32358408 0.19826366 -0.13702375 -0.8461023
000100 da 93 90 3e 4c 8d aa be f2 43 7b bd 9d b3 0f 3e
       0.28237802 -0.33310926 -0.061344095 0.14033361
000110 4c 70 81 3d 81 d3 f0 3d 95 bf 5d 3f 36 cc 2f 3e
       0.06320247 0.11759091 0.86620456 0.17167744
000120 90 77 cd bd b0 6e 96 bd a1 d3 f3 3d c4 48 69 3d
       -0.1003257 -0.07345331 0.119055994 0.05695416
000130 40 63 60 be 40 4f cd bd 42 0c 1f be 5f 68 98 be
       -0.21912861 -0.10024881 -0.1553202 -0.2976713
000140 49 b7 7b 3e f8 ea e0 3d ab 5d 79 be dd f9 48 ba
       0.24581636 0.10982317 -0.24352138 -0.0007666627
000150 a0 89 2f 3d b9 65 51 3d 87 d0 56 3f 0c 2b bc 3d
       0.04285586 0.0511224 0.8391194 0.09187898
000160 7e 18 bf be c0 4e 30 3c 5b 2c e4 3e 44 31 ba 3d
       -0.37323374 0.010760963 0.4456509 0.09091428
000170 f2 44 26 be 7c 5c 1a bc bb 73 29 be 56 1d 8a 3d
       -0.16237238 -0.009421464 -0.16548054 0.06743877
000180 ff 03 07 bf b6 73 55 bf 88 4a 16 3f 9d 3e 98 bf
       -0.5274047 -0.83379686 0.58707476 -1.1894108
000190 80 3f 0e 3b 8c 55 31 bf 8a 5b e3 3f 9c e2 ca 3d
       0.002170533 -0.6927116 1.776231 0.099065036
0001a0 b0 b9 04 3f 04 35 19 3e 1c b9 98 3f 34 80 30 be
       0.51845837 0.1496163 1.1931491 -0.17236406
0001b0 a3 7c 25 bf 2e 92 a1 bf b7 f2 54 be d5 64 4e 3f
       -0.64643306 -1.2622736 -0.20795713 0.8062261
0001c0 14 81 99 3d c5 1b 68 3e b7 9b e7 be 25 13 b2 3e
       0.07495323 0.22666843 -0.45235988 0.3478023
0001d0 0a 20 23 be 32 a5 0c bd 55 bc 13 bf 28 11 2d 3e
       -0.1593019 -0.03433723 -0.57709247 0.16901076
0001e0 b7 53 9c be 80 ae 37 3d 9d 68 2a 3d 88 05 71 3e
       -0.3053262 0.04484415 0.041603673 0.23537266
0001f0 db 5d 2c c0 b8 e4 d0 3d 83 ea 82 3e 76 4a a8 bd
       -2.6932285 0.10199875 0.25569543 -0.08217327
000200 2e 2f 17 bf be 0f 44 be 30 76 78 bf 42 f7 22 be
       -0.59056365 -0.1914663 -0.9705534 -0.15914634
000210 d0 2c ae bd 79 01 66 be 25 ba 44 be 5c 13 c5 bd
       -0.08504641 -0.224615 -0.19211634 -0.09622833
000220 50 bc 58 bf 24 f4 42 3e e1 b4 20 bd ee 53 5b 3d
       -0.8466234 0.19038445 -0.039235 0.05354684
000230 bf af 4e 3e bb 25 f4 be 05 72 56 bf a0 d9 08 bf
       0.2018423 -0.47685036 -0.8376773 -0.5345707
000240 ff 0f 31 bf 2e df b5 be e7 78 08 bf 51 0b 86 be
       -0.69165033 -0.35521835 -0.5330948 -0.2618051
000250 1e d3 1d be 5c 77 fc be 29 17 ea be 4c 6f 0d 3e
       -0.15412566 -0.49309814 -0.45720795 0.13811988
000260 d1 49 3d bf a2 4e 5f 3e c4 19 e5 be 2c 15 48 3e
       -0.7394076 0.2180734 -0.4474622 0.19539326
000270 eb 56 7c 3e 27 d1 e9 be ef ae 3a bf 81 f6 09 bf
       0.24642532 -0.45667383 -0.7292318 -0.5389176
000280 68 15 75 bf 3b 17 0d bf 35 60 09 bf 05 8d 96 be
       -0.9573579 -0.5511357 -0.53662425 -0.29404464
000290 88 45 61 3e 8c b7 21 bf a9 af 3c bf f0 00 9e 3c
       0.2199918 -0.63170695 -0.73705536 0.019287556
0002a0 ac 90 32 bf 1c 03 a7 3d 83 06 32 3b 78 d2 cd 3d
       -0.69752 0.0815489 0.0027164526 0.10049909
0002b0 e1 7d 8c be 75 e0 bf bd 71 53 f0 be 03 a7 50 bf
       -0.27439788 -0.09368984 -0.4693866 -0.8150484
0002c0 2e 58 96 3d 8b f4 04 3f 09 5c 50 3f b3 2d 40 3f
       0.07341038 0.5193564 0.81390435 0.7506973
0002d0 78 09 03 3d 29 46 41 bf f3 50 17 bf 96 ea 45 be
       0.031991452 -0.7549768 -0.59107894 -0.19327769
0002e0 24 41 52 be b0 b0 8f 3c be ec 4d bf 53 45 3f be
       -0.20532662 0.017540306 -0.80439365 -0.18678789
0002f0 c8 34 44 c0 f2 b7 a8 3f 36 b0 0a bd 89 65 94 bf
       -3.0657215 1.3181136 -0.033859454 -1.1593486
000300 10 46 83 3e b0 dc 73 bf ff 2e 39 bf 99 8b 94 bf
       0.2563939 -0.9525862 -0.72337335 -1.1605102
000310 60 10 f6 3c 92 2d 68 3f e8 eb c8 be 8a bf 2e be
       0.030037105 0.90694535 -0.39242482 -0.17065254
000320 cd 60 38 3e c0 c5 fa 3c 8a 9b fb 3e 61 42 29 bd
       0.18005677 0.030611873 0.49142104 -0.04132307
000330 5e 3a 5c 40 8b d3 9e 3d e7 ea ad bb 6a 2c 49 3f
       3.4410625 0.07755192 -0.0053075436 0.78583395
000340 16 65 6f 3b 2c c4 ac 3e 95 97 86 be eb ae 09 3f
       0.0036528758 0.33743417 -0.26287523 0.5378253
000350 ea a0 56 3e b7 e6 57 bf 8e 91 5f be 0c 94 58 3e
       0.20959821 -0.8433642 -0.21832868 0.21150225
000360 e1 96 4b 3e f4 58 5c be a0 60 65 3f 1a c6 6a 3c
       0.19881774 -0.21518308 0.89600563 0.014329458
000370 de eb da bf 83 e4 44 3f 3a ce 9c bf 3b 98 3f 3f
       -1.7103231 0.7691118 -1.2250435 0.7484166
000380 1a b1 29 3f 05 f4 08 3e 72 e3 86 bf cb 95 2f be
       0.6628586 0.13374336 -1.0538161 -0.17146985
000390 d4 c5 4f 3e 21 82 8a 3e 47 47 f3 bf 80 b3 52 3c
       0.20290309 0.27052405 -1.9006127 0.012860179
0003a0 44 5d 5f 3e 4a 22 04 3e 48 c5 9b bf 2d 15 e1 3d
       0.21812922 0.12903705 -1.216958 0.10990367
0003b0 6b 6c ff 3f d9 a4 8b 3f e4 76 bc bd 8f 8d 78 bf
       1.9954962 1.0909683 -0.09202364 -0.97091
0003c0 b6 ef ae bf 69 e6 25 3f ed 38 c3 3f 3a 6c b9 3e
       -1.3666904 0.64804703 1.5251747 0.36215383
0003d0 c8 90 3d bd 8f 2f e1 be 0b 2d db 3f 36 5d 0e be
       -0.046280652 -0.43981597 1.7123121 -0.13902745
0003e0 03 b1 49 be 20 74 6b bd c6 5d ff be 0d 35 65 bc
       -0.19696431 -0.057483792 -0.4987623 -0.013989699
0003f0 57 00 12 bf 00 0b a3 bf 57 e6 5d 3f 35 f3 c2 bd
       -0.5703177 -1.2737732 0.86679596 -0.09519044

decoder.4.bias f4 [18]
000000 fa 70 18 c0 44 aa 5d 3f 73 f8 a4 3e 8c 89 be bf
       -2.3818955 0.8658793 0.32220802 -1.4885726
000010 f4 32 09 c0 25 73 0d c0 01 cb be 3f 6f 6e 82 bf
       -2.143735 -2.2101529 1.4905702 -1.0189952
000020 40 43 9b be 8c 0a 2a bd 22 69 40 bc 32 09 03 3e
       -0.30324745 -0.041513965 -0.011743816 0.12796476
000030 57 8b 7f bf 20 e1 26 bf ab 9b 23 c0 44 74 18 40
       -0.9982199 -0.65187263 -2.5563762 2.3820963
000040 c8 d5 04 c0 d4 9d ec 3f
       -2.0755482 1.8485665
