results/16_8_4_60DS_42/Model.pth (torch, 8785 bytes, 14 tensors)

encoder.0.weight f4 [16, 18]
0	0x3e57ad4d	0.21062203
1	0x3efdc2ff	0.49562833
2	0xbe8c5d7a	-0.27415067
3	0x3f1fdc17	0.62445205
4	0x3e41fb6f	0.1894357
5	0x3e0c53b6	0.13703808
6	0x3e9a46d8	0.30132174
7	0x3c8af9cd	0.016964817
8	0x3e1cb9eb	0.15305297
9	0x3d81c8dc	0.06337139
10	0xbe0317a0	-0.12801981
11	0x3e283e1c	0.16429943
12	0xbde4c015	-0.11169449
13	0x3f73bd97	0.95211166
14	0x3f2dd2e8	0.6789994
15	0xbc2c826b	-0.010529141
16	0xbef3e7be	-0.47637743
17	0x3e43004e	0.19043085
18	0x3b0af0d2	0.002120067
19	0x3e590668	0.2119385
20	0x3ebc230b	0.36745486
21	0x3df3a0df	0.11895918
22	0xbe584edd	-0.21123834
23	0x3e02fc3f	0.12791537
24	0x3dba6b01	0.091024406
25	0xbe639a99	-0.22226943
26	0xbdbd1545	-0.092325725
27	0xbe509da9	-0.20372643
28	0x3dca025e	0.09863733
29	0x3e52b529	0.2057692
30	0xbde8076c	-0.113295406
31	0xbf86e186	-1.0537574
32	0xbea2f549	-0.31827763
33	0x3f2fb5fb	0.68637055
34	0xbf265258	-0.64969397
35	0xbd24bd2c	-0.04021947
36	0xbef4be99	-0.47801664
37	0x3da99eef	0.08282267
38	0x3f804aa9	1.0022784
39	0xbd861aa0	-0.06548047
40	0x3ed4071d	0.41411677
41	0x3f100186	0.56252325
42	0xbeb1d0ba	-0.34729558
43	0x3d94ae99	0.07259864
44	0xbd785d49	-0.06063584
45	0xbe21461d	-0.15749402
46	0x3e0140a3	0.12622313
47	0x3e555a6a	0.20835271
48	0x3eb459ca	0.35224754
49	0xbf9b6e6a	-1.2143071
50	0xbeb7741a	-0.35830766
51	0x3ed4c037	0.41552898
52	0x3edd0cb8	0.43173766
53	0xbf1cdcef	-0.6127462
54	0x3d5bbae3	0.053645026
55	0x3d3bdc16	0.045864187
56	0x3f106a9a	0.5641266
57	0x3e971a5c	0.29512298
58	0x3eec9426	0.46206778
59	0x3e89b6a4	0.26897156
60	0xbe4fbac5	-0.2028609
61	0x3e41643a	0.1888589
62	0xbe01f46d	-0.12690897
63	0xbc11dc6d	-0.008902651
64	0xbdb74066	-0.0894783
65	0x3d86e848	0.06587273
66	0xbe844981	-0.2583733
67	0x3eccb7f1	0.39984086
68	0x3f3df381	0.7419968
69	0xbd1e4013	-0.038635325
70	0xbf0885a8	-0.53328943
71	0xbdf9ffdc	-0.122070044
72	0x3f00a5e5	0.50253135
73	0x3e1e859b	0.15480654
74	0x3f67e9f2	0.9059135
75	0x3f21b5ed	0.6316822
76	0x3f88dfd0	1.0693302
77	0x3f90b599	1.1305419
78	0x3f7f06ad	0.9961956
79	0x3ed24d0f	0.41074416
80	0xbd91c939	-0.07118458
81	0x3b654446	0.003498332
82	0xbd3faec4	-0.04679753
83	0x3d4f2982	0.050576694
84	0xbe07afcc	-0.13250655
85	0x3fb8d803	1.4440922
86	0x3dd90467	0.10596543
87	0x3e5fc689	0.21853079
88	0xbe612208	-0.21985638
89	0x3fa369b3	1.2766632
90	0xbe99ba2c	-0.3002485
91	0x3e398ed9	0.18120898
92	0x3ec40f83	0.38293085
93	0x3ec673c3	0.38760194
94	0x3f7a2f21	0.97728163
95	0x3f90844f	1.1290377
96	0xbf8f2052	-1.1181738
97	0xbcf350ba	-0.02970158
98	0x3e45483d	0.19265838
99	0xbe01ecda	-0.12688008
100	0x3dcfca96	0.10146062
101	0xbdc7fb9f	-0.0976479
102	0x3e956e61	0.29185775
103	0xbf9f12dc	-1.242763
104	0x3e8f3b4b	0.27974924
105	0xbd8d8947	-0.06910949
106	0x3f3f973a	0.7484013
107	0xbfdf6610	-1.7453022
108	0x3eb1434a	0.3462165
109	0x3e53d3ba	0.20686236
110	0x3f0c07fc	0.54699683
111	0x3eca9685	0.39567962
112	0x3d828818	0.06373614
113	0x3fa85501	1.3150941
114	0xbf783315	-0.96952945
115	0x3f167c91	0.58783823
116	0x3d98f06c	0.07467732
117	0xbda3b0ee	-0.07992731
118	0x3dc7d496	0.097573444
119	0x3ee0399e	0.43793958
120	0xbf027db2	-0.50973046
121	0x3f21d467	0.63214725
122	0x3d483053	0.04887421
123	0xbf324c63	-0.69647807
124	0x3f282665	0.65683585
125	0xbf92c300	-1.1465759
126	0x3d9eea84	0.07759574
127	0x3da574c8	0.08078915
128	0x3f28cdf8	0.65939283
129	0x3e6a5207	0.22882853
130	0x3f716830	0.942996
131	0x3f33d5c4	0.70248055
132	0x3ea11da3	0.31467924
133	0x3f0d2bd5	0.5514501
134	0xbdbfc179	-0.09363074
135	0xbe7f52fc	-0.24934
136	0x3e463a4f	0.1935818
137	0x3e3f45f0	0.18679023
138	0xbd96c650	-0.07362044
139	0x3f5f2168	0.8716035
140	0x3e9eaf37	0.30993053
141	0xbdc4e0bc	-0.09613177
142	0xbd9c17ba	-0.07621713
143	0x3dfe55b2	0.12418689
144	0x3f0cbc89	0.5497518
145	0xbe8f28e6	-0.2796089
146	0x3e5603bb	0.2089986
147	0xbdb69413	-0.08914962
148	0x3eb89b51	0.36055997
149	0x3f51f76d	0.82018167
150	0x3e19ab58	0.15006769
151	0x3e718feb	0.23590057
152	0xbc98ded2	-0.018660937
153	0x3dd18921	0.102312334
154	0xbcc0b398	-0.023523137
155	0x3eb3a564	0.3508712
156	0xbfa78728	-1.3088121
157	0x3ec32df0	0.38120985
158	0xbeb50253	-0.35353336
159	0x3de7f10b	0.11325272
160	0xbe0fea4f	-0.14054225
161	0x3e32fbde	0.17478892
162	0x3ef574e4	0.47940743
163	0x3eeb3c9d	0.45944682
164	0xbed4a3e8	-0.415313
165	0x3f260464	0.6485045
166	0x3f15f62f	0.5857877
167	0x3efe10fb	0.4962233
168	0x3d128780	0.035773754
169	0x3ee314b9	0.44351748
170	0x3d544530	0.051823795
171	0xbd2a15d2	-0.041524716
172	0xbca625c8	-0.020281687
173	0x3f2ad82e	0.66736114
174	0xbebabd31	-0.36472467
175	0x3ed17c56	0.40915173
176	0xbeae5aa2	-0.34053522
177	0x3f0c4c38	0.548038
178	0x3ee894be	0.4542598
179	0x3ec33ec5	0.38133827
180	0xbf0d3a87	-0.5516743
181	0x3eb71514	0.3575827
182	0xbf0ddb80	-0.55413055
183	0xbf0578e0	-0.52137566
184	0x3fa28c9d	1.2699162
185	0x3f71ae9e	0.9440707
186	0x3d8fd079	0.07022185
187	0x3ebb41bf	0.36573598
188	0x3df82913	0.12117209
189	0xbc33bc54	-0.010970194
190	0xbe52238f	-0.20521377
191	0x3e672816	0.22573885
192	0x3ec9f391	0.3944364
193	0xbdc2155b	-0.094767295
194	0xbeb6a8b5	-0.35675588
195	0x3eb05bba	0.34444982
196	0x3eb46531	0.35233453
197	0x3e62728e	0.22114012
198	0x3e3ee096	0.1864036
199	0xbe89c67e	-0.2690925
200	0x3ec45ec5	0.38353553
201	0x3d881c86	0.066460654
202	0x3eec38a7	0.46136972
203	0x3f5bdd6d	0.85884744
204	0x3e14702f	0.1449592
205	0xbea5009e	-0.32227033
206	0xbdd1b8f3	-0.102403544
207	0x3d34f4f5	0.04417892
208	0x3de86c3e	0.113487706
209	0xbecfe0c1	-0.4060116
210	0xbd7304a0	-0.059330583
211	0x3ed9dc89	0.42551067
212	0x3f4dd7a6	0.8040718
213	0xbf23fa37	-0.6405367
214	0xbf540e2e	-0.82834136
215	0xbd860ca5	-0.065453805
216	0x3eb7cb01	0.35897067
217	0x3dfd8e19	0.123806186
218	0x3f8e2b2e	1.1106927
219	0x3f11979c	0.5687196
220	0x3d9a5d49	0.07537324
221	0x3e9f4957	0.3111064
222	0x3e956e54	0.29185736
223	0x3eb25fbe	0.3483867
224	0xbe6f496c	-0.23367852
225	0x3de304ab	0.11084875
226	0xbdfdf05d	-0.12399361
227	0xbad6a241	-0.001637526
228	0x3e6723c0	0.22572231
229	0xbd543d52	-0.051816292
230	0xbf1d5711	-0.6146098
231	0x3ec05fbc	0.3757304
232	0x3f0d295b	0.5514123
233	0x3e89e2df	0.269309
234	0xbe376cfe	-0.17912671
235	0x3ed9a40b	0.42507967
236	0x3ed5e80c	0.417786
237	0xbdba8b50	-0.09108603
238	0x3f567982	0.83779156
239	0x3f376026	0.71631086
240	0xbe18fc07	-0.14939891
241	0x3e614060	0.21997213
242	0xbe1f2f30	-0.15545344
243	0x3db4e21a	0.08832188
244	0xbe15e8f6	-0.14639649
245	0x3df7e6ff	0.12104606
246	0x3dc9d15f	0.098543875
247	0x3f10f64e	0.5662583
248	0x3e8a43f3	0.27004966
249	0x3ea910cd	0.3302063
250	0xbe861ab7	-0.26192257
251	0x3e85b303	0.26113138
252	0x3ec77a93	0.38960704
253	0x3e2abe78	0.1667422
254	0x3f7b230d	0.9810036
255	0x3e6b4932	0.2297714

encoder.0.bias f4 [16]
0	0x3eddf996	0.4335448
1	0x3e92bfb0	0.2866187
2	0xbeced6da	-0.40398294
3	0x3ef61d40	0.4806919
4	0x3ea2d62f	0.31804034
5	0xbea277e1	-0.31732085
6	0xbe339e5f	-0.17540883
7	0x3f08dda3	0.5346319
8	0x3d82f5c5	0.06394533
9	0x3eda6c46	0.4266073
10	0x3e07870d	0.13235112
11	0x3eecfb5d	0.46285525
12	0x3d08180e	0.033226065
13	0x3f09391b	0.5360276
14	0x3dd3d25b	0.103428565
15	0x3eab5168	0.33460546

encoder.2.weight f4 [8, 16]
0	0xbe329374	-0.17439061
1	0xbf42223d	-0.75833493
2	0x3f0edbc8	0.5580411
3	0xbec40f73	-0.38293037
4	0x3f69b614	0.91293454
5	0x3f9fdc29	1.2489063
6	0x3f8fed02	1.1244204
7	0x3edaa2a0	0.42702198
8	0x3ef62f7c	0.48083103
9	0x3f387fbc	0.7206991
10	0x3ef6194b	0.48066172
11	0xbf8608db	-1.0471452
12	0x3f1da4ad	0.615794
13	0x3e9ccd79	0.30625513
14	0x3ed0a71a	0.40752488
15	0x3f2f7f44	0.68553567
16	0x3d2c4364	0.042056456
17	0x3f87056f	1.0548533
18	0xbce6bd88	-0.028166547
19	0x3f77468a	0.9659201
20	0x3f203faa	0.62597144
21	0xbf41bc6d	-0.7567814
22	0xbf3a076f	-0.7266759
23	0x3f2732f4	0.65312123
24	0x3e7d3fd3	0.24731378
25	0xbed53178	-0.41639304
26	0xbe2e127d	-0.1699924
27	0x3f4e6d0b	0.80635136
28	0x3e973482	0.29532248
29	0x3ec15aea	0.37764674
30	0x3eb1d7c7	0.34734938
31	0xbeb74e99	-0.35802153
32	0x3e086641	0.13320257
33	0x3f130f46	0.5744518
34	0x3fa5d47b	1.2955469
35	0x3f6350d4	0.8879521
36	0x3f664069	0.8994203
37	0x3f67b5a7	0.90511554
38	0x3ef52db5	0.47886434
39	0x3f727b9f	0.9471988
40	0x3ed5c281	0.41749957
41	0x3ea8586c	0.3287996
42	0x3e3e9857	0.186128
43	0xbf00d13f	-0.50319284
44	0x3f3512be	0.70731723
45	0x3f2c01a0	0.6718998
46	0x3f7da2c4	0.99076486
47	0x3eeb0752	0.45904022
48	0x3ea6f184	0.32606137
49	0x3d2df60b	0.042470973
50	0xbd93b16d	-0.07211576
51	0xbe7f90d5	-0.24957593
52	0xbe36027d	-0.17774387
53	0x3d005cda	0.03133855
54	0xbdb3ab14	-0.08772865
55	0x3e0c34b4	0.1369198
56	0xbd84e3ab	-0.06488737
57	0x3e3b15bc	0.1827001
58	0x3e612d19	0.2198986
59	0xbf24d688	-0.6438985
60	0x3e8cec5c	0.27524078
61	0xbdafc5b2	-0.08582629
62	0xbeb5a4a3	-0.3547717
63	0x3ea64273	0.32472572
64	0x3ea8167a	0.32829648
65	0x3e607cce	0.21922609
66	0x3e031686	0.12801561
67	0xbe36e8f0	-0.17862296
68	0x3ea1c843	0.315981
69	0x3e2ad0dd	0.16681238
70	0xbf7a8346	-0.9785656
71	0xbe6d053a	-0.23146525
72	0xbeed2ed0	-0.46324778
73	0xbe0438db	-0.12912314
74	0xbd8bfd10	-0.06835377
75	0xbf5ea4ab	-0.86970013
76	0x3e39f889	0.18161215
77	0xbc126822	-0.00893596
78	0x3bbdf65b	0.00579719
79	0xbd370128	-0.044678837
80	0x3fa50f28	1.289525
81	0x3f4c67a4	0.79845643
82	0xbee00972	-0.43757206
83	0x3f06c3c8	0.5264249
84	0x3e88a155	0.26685587
85	0xbeb3edc6	-0.35142344
86	0x3f7ddceb	0.9916522
87	0x3ea3c1fc	0.31983936
88	0x3f84a82c	1.0363822
89	0x3ec9b8c6	0.39398783
90	0xbf1a4fc5	-0.6027797
91	0x3f2f541c	0.68487716
92	0x3d756c9c	0.05991803
93	0xbaeca698	-0.001805502
94	0x3d282da9	0.04105917
95	0xbe60e1a1	-0.2196107
96	0x3f63831a	0.8887192
97	0x3e99b2f3	0.3001934
98	0xbf4baafd	-0.7955778
99	0x3f00d0e3	0.50318736
100	0x3ea35a06	0.3190462
101	0xbefdb5a0	-0.4955263
102	0xbf54895c	-0.83022094
103	0x3f1fb168	0.62380075
104	0xbea97447	-0.33096525
105	0x3e1137ba	0.14181414
106	0x3f0a9703	0.54136676
107	0x3fc74956	1.5569255
108	0xbf1c1c93	-0.609811
109	0x3f1c055a	0.60945666
110	0x3c832d7f	0.016012905
111	0x3d64173e	0.055686228
112	0x3f4048dc	0.75111175
113	0x3f1317ca	0.57458174
114	0xbf32fb4c	-0.699147
115	0x3f3b5738	0.7317996
116	0x3e8b292a	0.27179843
117	0xbf0a4cb6	-0.540233
118	0x3ee410fe	0.44544214
119	0x3ec5d1b7	0.38636562
120	0x3f2d81cc	0.6777618
121	0x3de8eb01	0.113729484
122	0xbb14ccce	-0.002270508
123	0x3f96ed81	1.179123
124	0xbf1be37f	-0.60894006
125	0x3ec97fdd	0.39355364
126	0x3ec08679	0.37602594
127	0xbee26a8f	-0.44221923

encoder.2.bias f4 [8]
0	0xbd34a816	-0.04410561
1	0x3f286e65	0.6579345
2	0x3e6134da	0.21992818
3	0x3c56f8ef	0.013120874
4	0xbd2475f3	-0.040151548
5	0x3f314690	0.69248295
6	0x3e61ca24	0.22049767
7	0x3c0c19ba	0.008551056

encoder.4.weight f4 [4, 8]
0	0x3e7759a5	0.2415529
1	0x3f122298	0.57084036
2	0x3f36482e	0.7120389
3	0xbe15eb75	-0.14640601
4	0xbcd43e64	-0.025908656
5	0xbf7ecbc4	-0.9952967
6	0xbface476	-1.3507221
7	0xbfc718cf	-1.5554446
8	0x3f06fb1d	0.5272692
9	0xbfabca77	-1.3421162
10	0x3ec4efc1	0.38464168
11	0xbd9fce90	-0.078030705
12	0xbf1bbc20	-0.6083393
13	0xbf92ac6e	-1.1458871
14	0x3f1d5eb9	0.6147266
15	0xbf3787f4	-0.71691823
16	0xbeb7f9e3	-0.35932836
17	0x3f915bc4	1.135613
18	0x3ed4038e	0.41408962
19	0xbeb0068b	-0.34379992
20	0x3fae85a9	1.363454
21	0x3f200d21	0.62520033
22	0x3f99d423	1.2017864
23	0x3f6da400	0.9282837
24	0x3f4f3729	0.8094354
25	0xbf4e4b97	-0.8058409
26	0x3f2dd35d	0.6790064
27	0xbef87ebd	-0.48534194
28	0xbf98da6d	-1.1941658
29	0x3f67e148	0.90578127
30	0xbf67ce1d	-0.9054888
31	0x3ef15766	0.47136992

encoder.4.bias f4 [4]
0	0x3f0f8ab7	0.5607104
1	0x3daa8c46	0.08327536
2	0x3dbcfccb	0.09227904
3	0x3e440067	0.19140778

bottleneck.weight f4 [4, 4]
0	0x3f06c80e	0.5264901
1	0xbf856c39	-1.0423652
2	0x3e117678	0.14205348
3	0xbf9bc4e9	-1.2169467
4	0x3f2aacb7	0.6666979
5	0x3faea701	1.3644716
6	0xbf5003c5	-0.8125575
7	0xbe968cf0	-0.29404402
8	0x3fc91bc9	1.5711604
9	0x3efafde8	0.4902184
10	0xbf6b3b12	-0.9188701
11	0x3f2d9f5f	0.67821306
12	0xbdc49dc0	-0.09600401
13	0x3e046953	0.12930803
14	0xbfc082a6	-1.5039871
15	0x3eeb48d3	0.45953998

bottleneck.bias f4 [4]
0	0xbf0f0c4d	-0.55878145
1	0xbe8ee759	-0.2791088
2	0x3ebc70e6	0.36804885
3	0x3d8a3e6c	0.06750187

decoder.0.weight f4 [8, 4]
0	0xbe68a852	-0.22720459
1	0x3f9be7ef	1.2180156
2	0x3f77c3d3	0.9678318
3	0x3f18017a	0.59377253
4	0xbf2ab9da	-0.66689837
5	0xbf17f135	-0.5935243
6	0x3f0c2028	0.54736567
7	0xbf35ccef	-0.7101583
8	0x3f370fd2	0.71508515
9	0xbedfa115	-0.43677583
10	0xbefc195e	-0.49238104
11	0xbeadb2c2	-0.33925444
12	0x3ec0efba	0.37682897
13	0x3f369cf4	0.7133324
14	0x3f7897cb	0.9710662
15	0x3f616f60	0.8806057
16	0xbc84c45e	-0.016206916
17	0xbf3bd096	-0.7336515
18	0x3f5c2b0b	0.8600318
19	0x3f532d53	0.82491034
20	0xbf83122d	-1.0239922
21	0x3ef56755	0.479304
22	0xbd9b7420	-0.075905085
23	0x3fc90aba	1.5706398
24	0xbed596a1	-0.41716483
25	0x3f22b67b	0.63559693
26	0x3f415c1a	0.7553116
27	0xbdb3b40e	-0.08774577
28	0x3fbd283e	1.4777906
29	0xbd134766	-0.035956763
30	0xbf0337ce	-0.51257026
31	0xbeae3245	-0.34022728

decoder.0.bias f4 [8]
0	0xbfe22b71	-1.7669507
1	0xbeaf96c7	-0.3429472
2	0x3e086f03	0.13323598
3	0x3f31fab4	0.6952317
4	0x3d983bea	0.07433303
5	0x3e7ba612	0.2457507
6	0x400626d1	2.0961192
7	0xbf7dacfa	-0.99092066

decoder.2.weight f4 [16, 8]
0	0x3f114373	0.56743544
1	0x3f03ed2c	0.5153377
2	0xbf9131af	-1.1343287
3	0xbd2ec5c4	-0.042669073
4	0xbeb35f17	-0.35033485
5	0x3e1be9a2	0.15225843
6	0x3f06b23b	0.5261571
7	0x3ea49c0a	0.32150298
8	0xbd342423	-0.043979775
9	0x3f0e82e3	0.5566847
10	0x3d55cf31	0.052199546
11	0xbf19c2ba	-0.60062754
12	0x3f3a2b8d	0.72722703
13	0x3e91be0e	0.28465313
14	0x3e843bcb	0.25826868
15	0xbff33bb1	-1.9002591
16	0x3f6418ca	0.89100325
17	0x3ec238bf	0.3793392
18	0x3e4ed741	0.201993
19	0x3ec5f222	0.38661295
20	0xbea18819	-0.31549147
21	0x3da5dc3e	0.080986485
22	0x3d8581ba	0.06518884
23	0xbf27ed50	-0.65596485
24	0x3f2dad10	0.678422
25	0x3ea2bd0a	0.3178485
26	0x3f0197c6	0.5062221
27	0xbef4f513	-0.47843227
28	0x3f301ef4	0.6879723
29	0xbea704ea	-0.32620937
30	0x3ed2fbff	0.41207883
31	0xbf16b218	-0.588655
32	0x3e0440c8	0.12915337
33	0xbd2528e8	-0.040322214
34	0x3c113d80	0.00886476
35	0xbe53242e	-0.2061927
36	0xbaaa8600	-0.0013009906
37	0xbe9ff9ce	-0.31245273
38	0xbe16f105	-0.14740379
39	0xbe227e21	-0.15868427
40	0xbf0b397d	-0.54384595
41	0x3ed02ea3	0.4066058
42	0x3ecddbc4	0.4020673
43	0xbfae35ff	-1.3610228
44	0x3d328f03	0.043593418
45	0x3ed19764	0.40935814
46	0x3e899002	0.26867682
47	0x3eff56e3	0.49870977
48	0x3ed46c08	0.4148867
49	0x3e5ecda8	0.21758139
50	0x3f214874	0.6300118
51	0x3f016d6b	0.50557584
52	0xbc5e92c8	-0.0135848
53	0x3e0d75bf	0.13814448
54	0x3ecbbc21	0.39791968
55	0x3d48d40c	0.04903035
56	0x3f3cbac4	0.7372248
57	0x3e1e511f	0.15460633
58	0xbcc21a52	-0.023694191
59	0xbe1b0ea6	-0.15142307
60	0x3f52ded4	0.8237126
61	0x3ec31807	0.3810427
62	0x3dd761fb	0.10516735
63	0xbeb1d9f6	-0.34736603
64	0x3f2247ea	0.6339098
65	0xbe5d53c9	-0.21613993
66	0xbea46ae9	-0.32112816
67	0xbf20ebb3	-0.6285965
68	0x3ea20b8e	0.3164944
69	0x3e1cb8a3	0.15304808
70	0xbd865070	-0.06558311
71	0x3dbb664d	0.09150372
72	0xbf26600b	-0.649903
73	0x3d3a3a34	0.045465663
74	0xbc9948ca	-0.018711466
75	0xbf855ba3	-1.041859
76	0x3e60462e	0.21901771
77	0x3edaac44	0.42709553
78	0x3f42b429	0.7605615
79	0x3eebef58	0.46081042
80	0x3e03e7df	0.1288142
81	0x3ee41598	0.44547725
82	0xbc4dc5d3	-0.012559372
83	0xbe426b29	-0.18986191
84	0x3e751286	0.23932847
85	0xbf4fe295	-0.8120511
86	0xbf96b719	-1.1774627
87	0xbf62f9e6	-0.88662565
88	0xbd9af742	-0.07566692
89	0x3ed4d939	0.41571978
90	0x3cb6a1ad	0.02229389
91	0xbf4d4a2e	-0.80191314
92	0x3d40e2f3	0.047091436
93	0x3f06c965	0.52651054
94	0x3e0bc2d5	0.13648541
95	0xbf22d90f	-0.63612455
96	0xbeddc4e4	-0.43314278
97	0x3edff312	0.43740135
98	0xbda0da2b	-0.07854112
99	0x3def101c	0.116729945
100	0x3e3245f8	0.17409503
101	0x3de40d24	0.11135319
102	0x3f11b7dc	0.5692117
103	0xbf1cc999	-0.61245114
104	0xbdfb4cb2	-0.12270488
105	0x3e7e942b	0.24861209
106	0xbee96dcd	-0.45591584
107	0x3f32baa9	0.6981607
108	0x3f1dbfda	0.6162087
109	0x3ea27acf	0.3173432
110	0xbe379641	-0.17928411
111	0x3d01360f	0.031545695
112	0xbd88fffe	-0.06689452
113	0xbdd8b343	-0.105810665
114	0xbec8d0be	-0.39221758
115	0x3f281b47	0.6566662
116	0x3ef48f9d	0.47765818
117	0x3f313d9f	0.6923465
118	0x3e6a0dd8	0.22856843
119	0x3da70d10	0.08156788
120	0xbfd8629d	-1.6905094
121	0x3e3c06c3	0.18361954
122	0x3c1945b3	0.0093549965
123	0x3e95b319	0.29238203
124	0xbf204af5	-0.62614375
125	0x3e93cee0	0.2886877
126	0x3f516a0f	0.8180246
127	0x3f34a43c	0.705631

decoder.2.bias f4 [16]
0	0x3fcdd8a7	1.6081742
1	0x3e390f70	0.18072295
2	0xbfffb1aa	-1.9976094
3	0xbf8b400c	-1.087892
4	0xbe2f7a1e	-0.17136428
5	0xbe669b5d	-0.22520204
6	0x4017f519	2.3743346
7	0xbfb82cd2	-1.4388678
8	0x3f859fbc	1.0439372
9	0x3fa0b28c	1.2554488
10	0x3ec4e8a8	0.38458753
11	0xbf89b906	-1.075959
12	0x3ff14aab	1.8850912
13	0xbf5713e0	-0.840147
14	0x3f5dee0a	0.86691344
15	0xbf358993	-0.70913047

decoder.4.weight f4 [18, 16]
0	0x3c4e4740	0.0125902295
1	0xbd4995e6	-0.04921522
2	0x3c1eb069	0.009685614
3	0x3e2fe177	0.17175852
4	0xbe3c7ba0	-0.18406534
5	0x3cf54c19	0.029943513
6	0xbe18698a	-0.1488401
7	0x3d204a06	0.039133094
8	0x3efef3b6	0.49795312
9	0xbdb5fcf6	-0.08886139
10	0x3e021843	0.12704568
11	0x3c2cb6a4	0.010541592
12	0xbe546b03	-0.20743947
13	0x3e3b5b0a	0.18296447
14	0xbe75612e	-0.23962852
15	0x3e0ac5be	0.13551995
16	0x3b99462f	0.004677556
17	0x3ce4df6f	0.027938573
18	0x3bf4746c	0.0074601676
19	0xbd858864	-0.06520155
20	0x3d4a9b60	0.049464583
21	0xbbac7e66	-0.0052640913
22	0x3daa0fb2	0.08303775
23	0xbddb7802	-0.10716249
24	0xbd2e19a9	-0.04250494
25	0x3beea608	0.007282976
26	0xbdd5b5e4	-0.104350835
27	0x3bbfcd10	0.005853303
28	0x3d88e85d	0.06684945
29	0x3d51903b	0.05116294
30	0x3cab2d8f	0.020895747
31	0xbdd90e9c	-0.1059849
32	0xbcfb46b5	-0.030673364
33	0x3d371cfd	0.04470538
34	0xb984e0c1	-0.00025344457
35	0x3ea49909	0.32148007
36	0xbdfacb58	-0.12245816
37	0xbd59e239	-0.05319426
38	0xbe00c123	-0.12573676
39	0x3d36d6a1	0.04463828
40	0xbe746c9f	-0.2386956
41	0x3ddf1806	0.10893254
42	0x3dda4e74	0.10659495
43	0xbe90ceab	-0.28282675
44	0x3c201ee2	0.009772988
45	0x3d22e169	0.03976575
46	0xbd9ca534	-0.076486975
47	0x3d99c11f	0.07507538
48	0x3dbb8e5b	0.091580115
49	0x3e5c74f7	0.21528994
50	0xbd917ed4	-0.07104269
51	0xbb74f3dc	-0.0037376797
52	0xbd2a9568	-0.04164639
53	0x3f46d932	0.77675164
54	0xbe5a5e3c	-0.2132501
55	0x3d99e3af	0.0751413
56	0x3dd39f73	0.10333147
57	0xbf9a335a	-1.2046921
58	0xbf62754c	-0.8846023
59	0x3ea014a8	0.3126576
60	0xbab82af6	-0.0014050889
61	0x3df55ffe	0.119812
62	0xbe06ef12	-0.13177136
63	0xbee34b7b	-0.44393525
64	0x3e3fecae	0.1874263
65	0x3d9ea5b9	0.07746453
66	0x3ed2749e	0.41104597
67	0x3e137b86	0.14402589
68	0x3c738080	0.01486218
69	0x3b8c23f6	0.004276748
70	0xbe4315d0	-0.1905129
71	0x3d2b7a1f	0.04186451
72	0x3e30f2cd	0.17280121
73	0xbd1be9a4	-0.038064614
74	0xbe5cc713	-0.21560316
75	0x3e1c0010	0.15234399
76	0xbeb24cb7	-0.34824154
77	0xbe88f75f	-0.2675123
78	0xbeb6e893	-0.35724315
79	0x3e2ee82a	0.17080751
80	0xbe81878a	-0.2529872
81	0xbcdd0fcb	-0.02698507
82	0x3e89ba11	0.2689977
83	0xbca9394e	-0.020657208
84	0x3e3b2488	0.18275654
85	0xbe23928a	-0.15973869
86	0xbe796acb	-0.24357145
87	0x3e7078de	0.23483607
88	0xbe4c3838	-0.19943321
89	0x3e888649	0.2666495
90	0x3e9d9029	0.30774048
91	0x3e516ad0	0.20450902
92	0xbeb1eef1	-0.3475261
93	0x3e7c5a4f	0.24643825
94	0x3da1685c	0.07881233
95	0x3f124509	0.5713659
96	0xbf4bd012	-0.79614365
97	0xbe3cd99d	-0.18442388
98	0xbd852025	-0.06500272
99	0xbc9be96c	-0.019032203
100	0x3ceea020	0.029129088
101	0x3f1bad20	0.6081104
102	0x3e436e1c	0.19084972
103	0xbde9becc	-0.11413345
104	0x3dc940f9	0.09826846
105	0xbf1aac28	-0.6041894
106	0xbea6c93b	-0.32575402
107	0xbcc432e1	-0.023950042
108	0xbe5ba804	-0.21450812
109	0xbe452413	-0.19252042
110	0x3de8af17	0.11361521
111	0x3f138734	0.5762818
112	0x3e20f91f	0.15720032
113	0xbdae7a0c	-0.08519372
114	0xbd8b3981	-0.067980774
115	0xbe548ec0	-0.2075758
116	0xbc3b4940	-0.011431038
117	0x3dca82d4	0.09888235
118	0xbe81d448	-0.2535727
119	0x3d0f1f7e	0.034942143
120	0xbd46e2ed	-0.048556257
121	0x3d1b360b	0.037893336
122	0xbe763cf0	-0.24046683
123	0xbd0ad82c	-0.033897564
124	0x3e880a0a	0.2657016
125	0x3eaf6e78	0.34263968
126	0x3e285465	0.16438444
127	0xbd1a9017	-0.03773507
128	0xbe13b5ba	-0.14424792
129	0xbeed4625	-0.4634258
130	0xbea07d94	-0.31345809
131	0xbd762ade	-0.060099475
132	0x3de9b1a4	0.114108354
133	0xbf211d56	-0.6293539
134	0xbdbb0ec3	-0.09133675
135	0xbdd0393f	-0.10167169
136	0xbe76e4f7	-0.2411078
137	0x3cd41bb0	0.025892109
138	0xbf1f039f	-0.621149
139	0xbc444db1	-0.011981414
140	0xbe9a23a7	-0.30105326
141	0x3db5aad9	0.08870477
142	0xbe8d25a7	-0.2756779
143	0xbee625b4	-0.4495064
144	0xbd99b397	-0.07504957
145	0xbee2041f	-0.4414377
146	0xbe172b27	-0.14762555
147	0xbe42e681	-0.19033243
148	0x3e4ce2c8	0.20008385
149	0xbf184b6e	-0.59490097
150	0xbdaaf257	-0.08347004
151	0xbd754331	-0.05987853
152	0xbc7190aa	-0.014743963
153	0xbbc46329	-0.005993266
154	0xbe911919	-0.2833946
155	0xbece4ea9	-0.40294388
156	0xbe01a381	-0.12660028
157	0x3d43f0f0	0.047837198
158	0xbe4b1f01	-0.19836046
159	0xbf273c6a	-0.6532656
160	0xbec820bd	-0.39087477
161	0xbed2f25e	-0.41200536
162	0x3d1a4730	0.037665546
163	0xbe8d472a	-0.27593356
164	0x3e4df0a0	0.20111322
165	0xbf1a7c37	-0.60345787
166	0xbebfd82e	-0.3746962
167	0xbcecfa18	-0.028927848
168	0xbd0727b6	-0.032996856
169	0xbecaa499	-0.39578703
170	0xbe72266b	-0.23647468
171	0xbc7c2f7c	-0.0153921805
172	0xbe71a645	-0.23598583
173	0xbd845f6e	-0.06463514
174	0xbd9e8d23	-0.077417634
175	0xbeff7aaa	-0.49898273
176	0xbf1891ce	-0.5959748
177	0x3ef1183e	0.47088808
178	0xbe3a2ae4	-0.18180424
179	0x3f1916b6	0.5980028
180	0x3db3adf8	0.08773416
181	0xbf1ccf2e	-0.6125363
182	0xbf1153f8	-0.5676875
183	0x3f028a59	0.5099235
184	0x3f081bc2	0.53167355
185	0x3ddc15c5	0.1074634
186	0x3ea0a1f5	0.31373563
187	0x3f324176	0.69631135
188	0xbe5b5df3	-0.21422558
189	0x3d52208f	0.05130058
190	0xbeb2901b	-0.3487557
191	0xbf6c51ea	-0.9231249
192	0x3f2234ef	0.6336202
193	0xbe8cccae	-0.27499908
194	0x3e9ed3fb	0.31021103
195	0xbf23e76a	-0.64024985
196	0x3e07616c	0.13220757
197	0x3f508f41	0.8146859
198	0x3e2d6ca1	0.1693597
199	0xbe8f80bb	-0.280279
200	0xbeeded08	-0.46469903
201	0xbeafbd3b	-0.3432406
202	0xbf359a42	-0.70938504
203	0xbf4047e0	-0.7510967
204	0x3e291f61	0.16515876
205	0x3d9eb894	0.07750049
206	0x3e32fd98	0.17479551
207	0x3f7227d2	0.9459201
208	0x3ec9753c	0.39347255
209	0xbf9a465a	-1.205272
210	0x3f09181c	0.53552413
211	0x3ed6c451	0.41946653
212	0x3d052970	0.03251022
213	0xbb795e70	-0.0038050674
214	0xbec7606e	-0.38940758
215	0x3d6508d1	0.05591661
216	0xbf8151bb	-1.0103067
217	0x3d999b2c	0.075003
218	0x3f2b7104	0.66969323
219	0x3f0df7e0	0.5545635
220	0xbf185ce4	-0.5951674
221	0x3edf6a94	0.43636
222	0xbf1fa4be	-0.6236075
223	0xbdd41581	-0.10355664
224	0x3dd07d4a	0.10180147
225	0x3ed23999	0.4105957
226	0xbf527217	-0.8220534
227	0xbf104ba9	-0.5636545
228	0x3e356ab6	0.17716488
229	0x3e685248	0.22687638
230	0xbe7cdf1c	-0.24694484
231	0xbe1cf311	-0.15327097
232	0xbf85a8b9	-1.0442115
233	0x3f154862	0.5831357
234	0xbef25eb6	-0.47337884
235	0x3d519883	0.051170837
236	0x3ee3e1e9	0.44508293
237	0xbdb28b91	-0.087180264
238	0xbea62925	-0.32453266
239	0x3f1d0936	0.6134218
240	0xbf2ebad3	-0.6825382
241	0x3eb1bd4a	0.3471473
242	0x3ed410be	0.41419023
243	0x3f21e350	0.63237476
244	0x3cc7e070	0.024399012
245	0xbf069f8d	-0.52587205
246	0x3e515598	0.20442808
247	0x3ed9a1d9	0.42506292
248	0x3f8bbf50	1.0917759
249	0xbd684a0a	-0.056711234
250	0x3ef4b42e	0.47793716
251	0xbdbe310b	-0.09286698
252	0xbe82b847	-0.25531217
253	0xbf33a5b6	-0.7017473
254	0x3e24d93e	0.16098496
255	0xbf757094	-0.95874906

decoder.4.bias f4 [18]
0	0xbfa373c9	-1.276971
1	0x3ea8f277	0.32997486
2	0xbfe1251a	-1.7589447
3	0x3c7c23e2	0.0153894145
4	0xbfd878be	-1.6911848
5	0xc015d74b	-2.3412654
6	0xbeaffb1c	-0.3437127
7	0xbf2b7a83	-0.66983813
8	0xbe12f35b	-0.14350645
9	0xbe045539	-0.12923135
10	0x3d839390	0.0642463
11	0xbf8faeb7	-1.1225194
12	0x3e12b8e2	0.1432834
13	0xbf6626fb	-0.8990323
14	0xbea75333	-0.32680663
15	0x3f928e7c	1.1449733
16	0xbe53419e	-0.206305
17	0xbf07de60	-0.5307369
