results/16_8_4_60DS_42/Model.pth (torch, 8785 bytes, 14 tensors)

encoder.0.weight f4 [16, 18]
0	0x3e0c8f18	0.13726461
1	0x3e921f23	0.2853938
2	0xbec5f01f	-0.3865976
3	0x3ef3c43b	0.4761065
4	0x3f165f5a	0.58739245
5	0x3dd62218	0.104557216
6	0xbeea6a30	-0.4578414
7	0x3e8fefef	0.28112742
8	0x3d1964f9	0.03744981
9	0xbe57308f	-0.21014617
10	0x3de518f6	0.111864015
11	0x3e299f61	0.16564704
12	0xbde18c27	-0.1101306
13	0xbf7cfa2f	-0.9881925
14	0xbe2ef201	-0.17084505
15	0x3f350f41	0.707264
16	0x3e726d55	0.2367452
17	0xbdb2d4a1	-0.08731962
18	0x3e959396	0.29214162
19	0x3e8351eb	0.25648436
20	0xbe11fb3c	-0.14255995
21	0x3f82c2cf	1.0215701
22	0x3ec69228	0.38783383
23	0xbe85200a	-0.26001006
24	0x3e98bda0	0.29832172
25	0x3e6a62d6	0.22889265
26	0xbd92ad52	-0.071619645
27	0x3c24d839	0.010061317
28	0xbb660500	-0.0035098195
29	0xbf36dc62	-0.7143003
30	0x3f19b9a7	0.6004891
31	0xbdc2c08b	-0.09509381
32	0xbeb63364	-0.35586083
33	0x3ec768d6	0.3894717
34	0x3e4bc60e	0.1989977
35	0x3d0e9484	0.034809604
36	0xbe8e8ff6	-0.27844208
37	0x3ebbb10a	0.36658508
38	0xbe4817de	-0.19540355
39	0x3ea51722	0.3224421
40	0x3f097f3c	0.5370977
41	0x3e3d282b	0.18472354
42	0xbf452bd9	-0.7702003
43	0xbda03436	-0.078224584
44	0x3e68494f	0.22684215
45	0xbc7d40b5	-0.015457322
46	0xbdb44cc8	-0.08803707
47	0xbf62bb71	-0.8856726
48	0x3f52b1f6	0.82302797
49	0xbda47fa6	-0.080321595
50	0xbf109dba	-0.5649067
51	0x3e39893f	0.18118761
52	0x3e8c8138	0.27442336
53	0xbf6a90a4	-0.91626954
54	0xbd1f2c3e	-0.038860552
55	0xbe55c17b	-0.20874588
56	0x3e47eb15	0.1952327
57	0x3c8be650	0.017077595
58	0xbdacd20e	-0.08438502
59	0xbdc13fcb	-0.09435996
60	0xbe5ef4a6	-0.21773013
61	0xbd9a7ba4	-0.07543114
62	0x3d5a653c	0.0533192
63	0xbdbebcca	-0.093133524
64	0x3e040705	0.12893303
65	0x3d1f59c4	0.038903967
66	0x3e1326d6	0.14370283
67	0xbda9972e	-0.08280788
68	0xbda4d08b	-0.08047589
69	0xbe1fe7bd	-0.15615745
70	0x3d3dd204	0.046342865
71	0xbd8120a4	-0.06305054
72	0xbf4e4e1a	-0.80587924
73	0x3e1756a9	0.14779152
74	0xbf85fb3d	-1.0467297
75	0x3f34306c	0.70386386
76	0x3df6fe78	0.12060255
77	0x3f811103	1.0083317
78	0xbf86404e	-1.0488374
79	0x3f477be9	0.77923447
80	0xbe7cbe51	-0.24681975
81	0xbe3c3dd1	-0.18382956
82	0x3df166ae	0.11787163
83	0x3f4b636b	0.79448575
84	0xbe30abac	-0.17252988
85	0xbf349f6b	-0.7055575
86	0xbe4b35db	-0.19844763
87	0x3d21da61	0.039514903
88	0x3f00ffeb	0.503905
89	0xbf87be69	-1.0604984
90	0xbe8c1843	-0.2736226
91	0x3d8c584c	0.06852779
92	0x3fc1b257	1.513255
93	0xbec700dc	-0.38867843
94	0x3f34fdb8	0.70699644
95	0xbd97c494	-0.07410541
96	0x3f6b80cb	0.919934
97	0xbe97bdee	-0.29637092
98	0x3c999476	0.01874755
99	0x3d8228cf	0.0635544
100	0x3e144155	0.14478047
101	0xbfc6ba7a	-1.5525658
102	0x3f0ce8a7	0.550425
103	0x3f5a03d6	0.85162103
104	0xbfc8a7ec	-1.5676246
105	0x3f122aac	0.5709636
106	0xbf1cbcd8	-0.6122565
107	0x3f566495	0.83747226
108	0x3e606bd5	0.21916135
109	0x3df1973d	0.117964245
110	0x3e89c941	0.26911357
111	0x3f5deb94	0.8668759
112	0xbe557f57	-0.20849358
113	0xbe8017e6	-0.25018233
114	0x3e27fbb0	0.16404605
115	0x3c5a3b44	0.013319794
116	0xbc63bc85	-0.013899927
117	0x3ce9f66b	0.028559884
118	0xbc1f8170	-0.00973545
119	0xbf484f9b	-0.7824647
120	0x3e7b8bd3	0.24565057
121	0xbee50ba6	-0.4473545
122	0xbe86c43a	-0.26321584
123	0x3f264d1b	0.64961404
124	0x3e832a4a	0.25618201
125	0xbe058cd1	-0.13041998
126	0x3f174986	0.5909656
127	0xbc7b0811	-0.015321747
128	0xbf73e19f	-0.95266145
129	0x3f2cc001	0.67480475
130	0x3ebd2441	0.36941722
131	0xbdec58a3	-0.115403436
132	0xbdb049b2	-0.08607806
133	0x3d2b8971	0.04187912
134	0x3d6828fb	0.056679707
135	0xbdadb2d9	-0.08481378
136	0x3d219df4	0.039457276
137	0x3e311175	0.17291816
138	0xbeb46c16	-0.35238713
139	0xbebf700a	-0.37390167
140	0xbf789fae	-0.9711865
141	0x3f19692a	0.5992609
142	0x3e4ca8ea	0.1998631
143	0x3e9b05e1	0.30277923
144	0x3d88bac7	0.0667625
145	0x3ea0fdfb	0.31443772
146	0x3e529e71	0.20568253
147	0x3f8245c1	1.0177537
148	0xbdb67c3e	-0.08910416
149	0x3e00a46e	0.12562725
150	0x3cf60c26	0.03003509
151	0x3e7c1402	0.24617007
152	0x3d76a14b	0.060212415
153	0x3dd62c7d	0.10457704
154	0xbd80606c	-0.06268391
155	0x3f4d8ab2	0.8028976
156	0xbe0fef2c	-0.1405608
157	0xbf65dde4	-0.89791703
158	0xbf4bd358	-0.7961936
159	0x3f682b4d	0.9069107
160	0x3e818d50	0.25303125
161	0xbe4719aa	-0.19443384
162	0xbf2ed3a8	-0.6829171
163	0x3e34913b	0.17633526
164	0x3de52afc	0.11189839
165	0xbedbc563	-0.42924032
166	0x3eab353e	0.33439058
167	0x3f558950	0.8341265
168	0xbe42e738	-0.19033515
169	0x3efc88a8	0.4932301
170	0x3e530c54	0.20610172
171	0xbe10f1cd	-0.1415474
172	0xbd576cbc	-0.05259393
173	0xbea84409	-0.32864407
174	0x3ed206f9	0.41020945
175	0xbfbe4c94	-1.486712
176	0xbf3b575c	-0.73180175
177	0x3f3dfa25	0.74209815
178	0x3d7d54b1	0.061848346
179	0x3cd18397	0.025575442
180	0x3d9dba67	0.07701569
181	0xbd35d44b	-0.04439191
182	0x3dfc89a6	0.12330942
183	0x3d8bf4e1	0.06833816
184	0x3e39f855	0.18161137
185	0x3eba9fa7	0.3644993
186	0xbf428457	-0.75983185
187	0x3e5801f1	0.2109449
188	0x3e12b7db	0.14327948
189	0xbc149a99	-0.009070062
190	0x3d22e43c	0.039768443
191	0xbf050b72	-0.5197059
192	0x3f57d257	0.8430533
193	0xbe7f131f	-0.24909638
194	0xbf067d36	-0.52534807
195	0x3ea3f9ed	0.32026616
196	0x3deda625	0.11603955
197	0xbf4090e4	-0.75221086
198	0x3da49681	0.08036519
199	0x3eba7abf	0.36421773
200	0x3f4dc08f	0.80371946
201	0x3e9a8c5e	0.30185217
202	0x3e0b84f4	0.13624936
203	0x3ea4eb66	0.32210845
204	0x3e298fec	0.16558808
205	0x3b827714	0.0039814804
206	0xbe152446	-0.14564618
207	0xbd04aa9e	-0.032389276
208	0x3e060c81	0.13090707
209	0x3f798e4e	0.97482765
210	0xbf065b1a	-0.5248276
211	0x3e841dd1	0.25803998
212	0x3f1aa3e9	0.6040636
213	0xbe850553	-0.25980625
214	0x3e9d409a	0.3071335
215	0x3db7b429	0.0896991
216	0x3e6d94d1	0.232013
217	0x3ee8b8bb	0.45453438
218	0xbe81204e	-0.2521996
219	0x3e73965a	0.23787823
220	0x3f64ecd0	0.8942385
221	0xbedd5315	-0.4322745
222	0x3f888921	1.0666848
223	0xbe955a56	-0.29170483
224	0xbe325524	-0.17415291
225	0x3db5af3f	0.08871316
226	0xbc706820	-0.014673263
227	0x3ecdf2fe	0.4022445
228	0x3f17852f	0.591876
229	0x3fc8cfe5	1.5688444
230	0x3f7e939d	0.9944399
231	0xbf288f17	-0.6584334
232	0xbd315717	-0.043295946
233	0x3f939a93	1.1531547
234	0x3ec1c796	0.37847584
235	0x3e1290c1	0.14313032
236	0xbf0e2780	-0.5552902
237	0xbefac229	-0.48976257
238	0x3f41e0dc	0.75733733
239	0xbcc84e7f	-0.024451492
240	0xbec842eb	-0.39113554
241	0x3f3b6768	0.7320466
242	0xbe57f201	-0.21088411
243	0xbd24e0f0	-0.04025358
244	0xbe16ae40	-0.14714909
245	0xbe1b0ec5	-0.15142353
246	0x3ea11d95	0.31467882
247	0xbf6f23b7	-0.9341387
248	0xbec8890b	-0.39167055
249	0x3f55bb56	0.83488977
250	0x3eeb35a7	0.4593937
251	0xbe88e35f	-0.2673597
252	0x3e2d1a2c	0.16904515
253	0x3eb49c12	0.35275322
254	0x3ea5e9d1	0.3240495
255	0x3dbe7949	0.09300477

encoder.0.bias f4 [16]
0	0x3e0ca2e4	0.13734013
1	0x3cfef4f3	0.03112266
2	0x3e89c808	0.26910424
3	0xbe49cd47	-0.19707213
4	0xbebeaa8e	-0.37239498
5	0x3dae66d6	0.08515708
6	0x3ed48c2a	0.41513187
7	0x3e64c6e0	0.2234149
8	0x3d8ebde7	0.06969815
9	0x3d37fc29	0.044918213
10	0x3e0c0eae	0.13677475
11	0x3ed3920f	0.4132237
12	0x3f3d5baa	0.73967993
13	0x3ebbe958	0.36701465
14	0x3eba996d	0.3644518
15	0x3f00505a	0.50122607

encoder.2.weight f4 [8, 16]
0	0x3f10683b	0.56409043
1	0x3ee2fce9	0.4433358
2	0xbebd5185	-0.36976257
3	0x3d5b9d18	0.053616613
4	0x3e5925ef	0.21205877
5	0x3f969b64	1.1766171
6	0x3ecbc76e	0.3980059
7	0x3f897fd8	1.074214
8	0x3f58de15	0.8471387
9	0xbf71ef17	-0.9450545
10	0xbf596937	-0.8492617
11	0x3f02a37c	0.5103071
12	0x3f1862cd	0.5952576
13	0xbef7e100	-0.4841385
14	0xbf0611f0	-0.5237112
15	0x3f263dde	0.6493815
16	0x3e23bc13	0.15989713
17	0x3f4f966c	0.810889
18	0xbdd04113	-0.10168662
19	0xbdd136ff	-0.10215568
20	0x3f8f20bf	1.1181868
21	0xbead818a	-0.33887893
22	0x3f4c571f	0.79820436
23	0x3e404a23	0.18778281
24	0xbe22584f	-0.15854
25	0xbe2090f2	-0.15680292
26	0xbea81cd7	-0.32834503
27	0xbf9267ec	-1.1437964
28	0x3e7ef0a6	0.24896488
29	0x3ec5f7a5	0.386655
30	0x3e44ffc6	0.19238195
31	0xbdc13b00	-0.094350815
32	0x3f107b2a	0.56437933
33	0xbdc1dfdf	-0.09466528
34	0xbeb97235	-0.36219946
35	0xbe76453d	-0.2404985
36	0x3f797953	0.9745075
37	0xbfdb3358	-1.7125044
38	0x3f00c5c3	0.5030176
39	0x3ef66a12	0.481278
40	0x3f7d584e	0.9896287
41	0x3f8baa9c	1.0911441
42	0x3ee69ff0	0.45043898
43	0xbd00ee43	-0.031477224
44	0xc01923dc	-2.3928137
45	0x3ecccaa2	0.39998347
46	0x3f6073b7	0.87676567
47	0x3e2913ee	0.16511509
48	0xbdba921b	-0.09109899
49	0x3f6e3b82	0.9305955
50	0x3f24e8b3	0.6441757
51	0xbca03dea	-0.019560773
52	0xbeb72f3c	-0.35778224
53	0xbf71205e	-0.94190013
54	0x3f15e237	0.585483
55	0x3cd69333	0.026193237
56	0xbba14dfa	-0.0049226256
57	0x3c5d3b8f	0.013502969
58	0x3f2facc2	0.6862298
59	0xbf6ae6c9	-0.917584
60	0x3d29fd41	0.041501287
61	0x3e98cccc	0.29843748
62	0x3f2e3e7d	0.680641
63	0xbca819ed	-0.020520175
64	0x3f0de267	0.5542359
65	0xbe951bca	-0.29122764
66	0xbf4a4b95	-0.7902158
67	0xbdb74c98	-0.08950156
68	0x3f82c2ed	1.0215737
69	0xbebdd19c	-0.37073982
70	0x3e33ffe5	0.17578085
71	0x3f22cb9d	0.6359194
72	0x3eaaf10f	0.33387038
73	0x3ec9160f	0.39274642
74	0xbf3aafb5	-0.7292436
75	0x3f867c6e	1.0506723
76	0xbd989966	-0.074511334
77	0x3ee1d16b	0.44105086
78	0x3e24ff91	0.16113116
79	0x3f4eb578	0.8074565
80	0x3f25b1e8	0.6472459
81	0x3f304292	0.6885158
82	0x3e2b4aa3	0.1672769
83	0xbe02062e	-0.1269767
84	0x3f49022e	0.7851895
85	0xc002feb9	-2.046797
86	0x3eefe310	0.46852922
87	0x3f150da1	0.5822392
88	0x3f19a13a	0.6001164
89	0x3e8c0d5f	0.2735395
90	0xbc1d98b2	-0.009618925
91	0xbf605171	-0.8762427
92	0xbf80c263	-1.0059322
93	0x3ebaa225	0.3645183
94	0x3eff53ad	0.49868527
95	0x3f122bcf	0.57098097
96	0x3f65521b	0.8957841
97	0xbf6ea5fb	-0.93222016
98	0xbf210c87	-0.6290974
99	0x3d0dd2f0	0.034624994
100	0x3f56442f	0.8369779
101	0x3f8b327f	1.0874785
102	0xbf7e2746	-0.99278677
103	0x3f2de208	0.6792302
104	0x3f0055c2	0.50130856
105	0x3e64df8a	0.22350898
106	0xbf06f51b	-0.5271775
107	0x3efe651d	0.49686518
108	0xbe6caa2c	-0.2311179
109	0x3f4c9362	0.7991239
110	0xbe701fe5	-0.23449667
111	0x3e87dfd8	0.26537967
112	0x3f3e30ab	0.7429301
113	0x3f4c0468	0.79694223
114	0x3f8c99d4	1.0984445
115	0xbde4c810	-0.111709714
116	0x3f6280f3	0.8847801
117	0xc00a45eb	-2.1605175
118	0xbca74796	-0.020419877
119	0x3efd6545	0.49491325
120	0xbdd16a42	-0.10225345
121	0x3f0e79ae	0.5565442
122	0x3f25e02a	0.6479517
123	0xbf853612	-1.0407126
124	0xbea6aaa2	-0.32552058
125	0x3f122bd2	0.57098114
126	0x3e525e85	0.20543869
127	0x3f15dd07	0.58540386

encoder.2.bias f4 [8]
0	0x3e19123d	0.14948364
1	0x3f0d123b	0.5510594
2	0xbeee3990	-0.46528292
3	0x3e874ecd	0.26427308
4	0x3f0d135c	0.55107665
5	0x3e71a2c8	0.23597252
6	0x3e97ef84	0.29674923
7	0x3e8da9f3	0.27668723

encoder.4.weight f4 [4, 8]
0	0x3e83bc33	0.25729522
1	0x3eb99555	0.36246744
2	0x3f2047af	0.6260938
3	0x3f6fda2a	0.93692267
4	0xbe93310b	-0.28748354
5	0x3f5d6f23	0.86497706
6	0xbfb4aea3	-1.4115795
7	0x3e81b7c1	0.25335506
8	0xbf96153a	-1.1725228
9	0x3f081ef1	0.5317221
10	0xbeded992	-0.43525368
11	0x3f968182	1.1758273
12	0xbe689d16	-0.22716174
13	0x3f1af53b	0.6053044
14	0xbec3b544	-0.38224232
15	0x3f81c854	1.013926
16	0xbfcd7cd1	-1.6053716
17	0x3cb74ba8	0.022374943
18	0x3f923070	1.1421032
19	0x3f1a8bbb	0.6036946
20	0xbe661227	-0.22467862
21	0x3f54dd7c	0.8315046
22	0xbf1386f8	-0.5762782
23	0x3f25c5ae	0.6475476
24	0xbdc9f291	-0.09860719
25	0x3f29548d	0.6614464
26	0x3f295ae2	0.661543
27	0xbf1262db	-0.5718209
28	0x3f775866	0.9661926
29	0x3f535d1d	0.82563955
30	0x3cd283cc	0.025697611
31	0x3f651946	0.8949169

encoder.4.bias f4 [4]
0	0xbea46c71	-0.32113984
1	0x3f7b1504	0.9807894
2	0xbf032ca4	-0.5123999
3	0x3f4447d6	0.7667211

bottleneck.weight f4 [4, 4]
0	0x3e9b3bb3	0.30318984
1	0x3eb04c19	0.34433058
2	0xbf309976	-0.6898416
3	0xbf890c71	-1.0706922
4	0x3fa4f07d	1.2885891
5	0x3f08eef7	0.5348963
6	0x3fce10ee	1.6098917
7	0xbf692463	-0.91071147
8	0x3f415183	0.75515
9	0xbeef11e9	-0.46693352
10	0xbef2bba1	-0.47408774
11	0x3f802451	1.0011083
12	0xbe79d110	-0.24396157
13	0xbfdb43cd	-1.7130066
14	0xbf4dc6f3	-0.803817
15	0xbee1935c	-0.4405774

bottleneck.bias f4 [4]
0	0xbf112c29	-0.5670801
1	0x3f22e41b	0.6362931
2	0x3fcafaa5	1.5857741
3	0xbf96cf34	-1.1781983

decoder.0.weight f4 [8, 4]
0	0x3e52fb08	0.20603573
1	0xbec50c00	-0.38485718
2	0xbefa2126	-0.48853415
3	0x3efbcd0c	0.49179876
4	0xbf17414f	-0.5908403
5	0xbf642f71	-0.8913489
6	0x3e847cd5	0.2587649
7	0xbf26a981	-0.6510239
8	0xbf7d87c2	-0.99035275
9	0xbecbce45	-0.3980581
10	0x3dfd57d8	0.123702705
11	0x3e676ffd	0.22601314
12	0xbf356e59	-0.708715
13	0xbf961213	-1.1724266
14	0x3f0fbdb5	0.56148845
15	0x3da9f34d	0.08298359
16	0xbf1d9090	-0.6154871
17	0x3dfe75f6	0.12424843
18	0x3fa01129	1.2505237
19	0xbf3a0bc2	-0.7267419
20	0xbe46f451	-0.19429137
21	0x3f2c6e38	0.6735568
22	0xbd923840	-0.07139635
23	0xbf84ccd6	-1.0375011
24	0x3d69250d	0.0569201
25	0x3f8413e8	1.0318575
26	0x3f23f9b3	0.64052886
27	0xbf000987	-0.5001454
28	0xbf440fdc	-0.765867
29	0x3f4ca40a	0.79937804
30	0xbf0c8a4c	-0.54898524
31	0xbf34b25b	-0.7058465

decoder.0.bias f4 [8]
0	0xbbdd5880	-0.006754935
1	0x3fb9b335	1.4507815
2	0x3f8f889d	1.1213566
3	0xbf9463b2	-1.1592925
4	0x3fa7e3c5	1.3116385
5	0xbfd1a06d	-1.6377083
6	0x3fe5a60d	1.79413
7	0x3f0d61c1	0.55227286

decoder.2.weight f4 [16, 8]
0	0xbdb86f0c	-0.090055555
1	0x3e3b0e8e	0.18267271
2	0x3eed6d08	0.46372247
3	0x3f2cdc14	0.6752331
4	0x3eabebcf	0.33578345
5	0xbe04a8d6	-0.12955031
6	0xbe02bb45	-0.1276675
7	0x3ddcd98c	0.10783681
8	0x3e903f7b	0.28173432
9	0x3e58b89d	0.21164174
10	0x3f199bc0	0.6000328
11	0x3e3ce519	0.18446769
12	0xbe462dcb	-0.19353406
13	0x3dd01acc	0.10161361
14	0xbd0505af	-0.032476123
15	0x3f1218ed	0.57069284
16	0x3d11fb78	0.03564021
17	0x3e29c7c5	0.16580112
18	0xbeb1c433	-0.3472
19	0xbe8fe8ea	-0.28107387
20	0xbdcd1f9f	-0.10015797
21	0x3e1ff7ec	0.15621918
22	0x3cdb1064	0.026741214
23	0xbeae121e	-0.33998197
24	0xbea96691	-0.33086064
25	0x3ee65a10	0.44990587
26	0x3c6e67b5	0.014551093
27	0xbf5fdba9	-0.8744455
28	0x3e77320b	0.24140184
29	0x3ed5192d	0.4162077
30	0x3ebb0e00	0.3653412
31	0x3f0aadd7	0.5417151
32	0x3e22c2de	0.15894648
33	0xbe525f57	-0.20544182
34	0x3ea1966b	0.31560072
35	0xbdfe649a	-0.12421532
36	0xbcedcc10	-0.029027969
37	0xbde06be0	-0.109580755
38	0xbea070b6	-0.31335992
39	0xbc9f1640	-0.01941979
40	0xbeaa3a2b	-0.33247504
41	0xbf809198	-1.0044432
42	0xbfa30a71	-1.2737561
43	0x3ef8f091	0.48621038
44	0xbe7ce777	-0.24697672
45	0x3f611267	0.87918705
46	0x3f0e28ee	0.55531204
47	0x3f22ef5f	0.636465
48	0xbe467de3	-0.1938396
49	0xbde7af90	-0.11312783
50	0x3e1671be	0.14691827
51	0x3e351dce	0.17687151
52	0xbeace00c	-0.33764684
53	0x3e8eebe5	0.27914348
54	0xbe49651c	-0.19667476
55	0xbea83b37	-0.32857677
56	0xbddea2aa	-0.108708695
57	0xbe2ea4ed	-0.17055102
58	0xbe7739e4	-0.24143177
59	0xbe999928	-0.2999966
60	0x3b9cf840	0.004790336
61	0xbd6d4898	-0.05793056
62	0xbe909108	-0.2823565
63	0xbddd4812	-0.10804762
64	0xbe3207d1	-0.17385794
65	0xbea7f9e7	-0.32807848
66	0xbea1be27	-0.31590387
67	0x3f91b552	1.138346
68	0x3e143be7	0.14475976
69	0x3f68f80b	0.91003484
70	0x3efc7299	0.4930618
71	0x3e28a729	0.16470017
72	0x3e1c22a6	0.15247592
73	0x3e4c5d52	0.19957474
74	0x3f2d8e34	0.6779511
75	0xbf4237d0	-0.75866413
76	0x3eaacb86	0.333584
77	0xbda08a4b	-0.07838877
78	0x3f285da5	0.6576789
79	0x3e7cb702	0.24679187
80	0xbe0ad7c5	-0.13558872
81	0xbf1840bb	-0.5947377
82	0x3e8a1648	0.26970124
83	0xbf8b60ec	-1.0888953
84	0xbd6fecf9	-0.058575604
85	0xbe8eeb19	-0.2791374
86	0x3eeb27f7	0.45928928
87	0x3e603c2c	0.21897954
88	0xbe693572	-0.22774294
89	0x3eb11ea8	0.345937
90	0x3cdf4c95	0.027258197
91	0x3f34d4b9	0.7063709
92	0x3ce68951	0.02814165
93	0x3eaf15ef	0.34196422
94	0xbe82b2c3	-0.2552701
95	0x3e8116f7	0.25212833
96	0x3eb2bf51	0.34911588
97	0x3f170a29	0.5899988
98	0x3e9e3950	0.309031
99	0xbf4426ae	-0.7662152
100	0x3f37ca6d	0.7179325
101	0x3e504ce0	0.20341825
102	0x3f3d4d0a	0.7394568
103	0x3d9eb5a7	0.07749491
104	0xbe646faf	-0.22308229
105	0xbe6a9f42	-0.22912315
106	0x3e4813b5	0.19538768
107	0x3e9ed21b	0.31019673
108	0x3e150947	0.1455432
109	0xbf2145f9	-0.62997395
110	0xbeede4e1	-0.46463683
111	0xbfce4d39	-1.6117316
112	0xbdf83db8	-0.12121147
113	0x3e6e403b	0.2326669
114	0xbf062c22	-0.5241109
115	0xbf3a2824	-0.727175
116	0x3dc05af3	0.09392347
117	0x3e384521	0.1799512
118	0x3e1c9800	0.15292358
119	0xbe0aac72	-0.13542345
120	0x3d812c90	0.06307328
121	0x3e8be591	0.27323583
122	0xbe97b1e2	-0.296279
123	0xbea7b5ac	-0.32755792
124	0xbeafe28e	-0.34352535
125	0x3c2b3080	0.010448575
126	0xbd9436c4	-0.07237008
127	0x3e8c3478	0.2738378

decoder.2.bias f4 [16]
0	0xbe21c75d	-0.15798707
1	0x3fa5b8fb	1.2947077
2	0x3e4c32a7	0.19941197
3	0x3ef6f7f8	0.4823606
4	0xbe709862	-0.2349563
5	0xc0164680	-2.348053
6	0xbeb12608	-0.34599328
7	0x3e75be96	0.23998484
8	0xbfe34ce1	-1.7757837
9	0x3f8028f5	1.0012499
10	0x3fc6bbcf	1.5526065
11	0x3df978a7	0.12181216
12	0x3e3a3503	0.18184285
13	0xbf0d964a	-0.5530745
14	0x3feef7f2	1.8669417
15	0x3e017978	0.12643993

decoder.4.weight f4 [18, 16]
0	0x3e2d71e1	0.16937973
1	0x3d9aae47	0.07552772
2	0x3e279e90	0.1636908
3	0xbe0a1edc	-0.13488334
4	0xbd8afff8	-0.067871034
5	0x3dd29a14	0.10283294
6	0xbe104300	-0.14088058
7	0x3e1188da	0.14212361
8	0x3d635b09	0.05550674
9	0x3e9cca80	0.30623245
10	0xbe20d037	-0.15704428
11	0xbed55c6b	-0.41672072
12	0xbdccf915	-0.10008446
13	0x3e63f3d9	0.22260989
14	0xbe80bd0c	-0.2514423
15	0x3e2454e0	0.16048002
16	0xbd413605	-0.047170658
17	0x3c7edf14	0.015556116
18	0xbd97c1db	-0.07410022
19	0x3d6c69c9	0.057718072
20	0xbca1e4d0	-0.019762427
21	0xbd4a8cf0	-0.049450815
22	0x3d610eb0	0.054945648
23	0xbdc05338	-0.09390873
24	0xbd14139d	-0.036151517
25	0xbe710b5c	-0.2353949
26	0x3e5ca9d0	0.21549153
27	0x3db4b87c	0.0882425
28	0x3df39e80	0.11895466
29	0xbd3e3532	-0.04643745
30	0x3db21f6e	0.08697401
31	0xbe03614a	-0.12830082
32	0xbdc0cc22	-0.09413935
33	0x3d42904a	0.047500886
34	0x3e683fe9	0.2268063
35	0xbe15aea7	-0.14617406
36	0xbdda17e0	-0.10649085
37	0xbd981ee3	-0.07427766
38	0x3e2a01aa	0.16602197
39	0x3d6c8d78	0.057752103
40	0xbce75117	-0.028236909
41	0x3eb0fbcb	0.34567103
42	0x3ea00650	0.31254816
43	0x3dab2837	0.0835728
44	0xbde6df55	-0.11273066
45	0x3d927bd4	0.071525246
46	0x3e74c192	0.23901966
47	0xbcb709ed	-0.0223436
48	0x3e26c5bb	0.16286366
49	0xbf065e93	-0.5248806
50	0xbd7c7996	-0.06163939
51	0xbddd840b	-0.10816201
52	0xbe329a60	-0.17441702
53	0x3ca72bd6	0.020406645
54	0xbd99dd58	-0.07512921
55	0xbdb4fa10	-0.08836758
56	0x3df5384f	0.11973631
57	0x3ebfce87	0.37462255
58	0xbdc251b0	-0.09488237
59	0xbe2994fe	-0.16560742
60	0x3c184fc0	0.009296358
61	0x3e31147f	0.17292975
62	0xbefdae84	-0.49547207
63	0x3e0b5663	0.13607173
64	0xbcf30478	-0.029665217
65	0x3dd51c71	0.104058154
66	0xbda7ba42	-0.08189823
67	0xbda6b45a	-0.08139868
68	0xbb8b1d80	-0.00424546
69	0x3d3aebbd	0.045634974
70	0x3e0ea400	0.13929749
71	0x3e7f2e32	0.24919966
72	0xbd40445e	-0.0469402
73	0xbd62d3b9	-0.055377696
74	0xbf364100	-0.7119293
75	0xbc378012	-0.011199968
76	0x3da687b2	0.081313506
77	0x3e295efb	0.16540138
78	0x3e915088	0.28381753
79	0xbd0eef9f	-0.03489649
80	0x3c528e0b	0.0128512485
81	0x3df5adf3	0.11996069
82	0xbd2b5bf3	-0.041835736
83	0x3e94079f	0.28912064
84	0x3c667020	0.014064819
85	0xbd5129e7	-0.05106535
86	0xbc195380	-0.009358287
87	0xbe4ff8c6	-0.20309743
88	0xbe072771	-0.1319864
89	0x3d2fc67c	0.0429139
90	0x3ea6949f	0.32535264
91	0x3c8f2e85	0.017478237
92	0xbd25f8fa	-0.040520646
93	0x3d9473b9	0.07248635
94	0xbf48f5c3	-0.785
95	0xbda1062d	-0.07862506
96	0x3e3cda95	0.18442757
97	0x3f108747	0.56456417
98	0xbda9757c	-0.082743615
99	0x3ddbedbe	0.10738705
100	0xbe5ca742	-0.21548179
101	0xc002bee9	-2.0429022
102	0xbdd63848	-0.104599535
103	0x3d81b8c4	0.06334069
104	0xbfc1305b	-1.5092882
105	0x3f06f87e	0.5272292
106	0xbe3ab89a	-0.18234482
107	0xbe9d52fe	-0.3072738
108	0x3e77a8c0	0.24185467
109	0x3ec3ee9a	0.38267976
110	0xbf75438c	-0.95806193
111	0x3e150833	0.14553909
112	0xbe670d9c	-0.22563785
113	0xbdd6a286	-0.10480218
114	0xbe7855b7	-0.24251448
115	0x3e6e729d	0.23285909
116	0x3d8fda70	0.070240855
117	0x3f5a3b99	0.8524719
118	0xbe31ff76	-0.17382607
119	0x3cfae730	0.030627817
120	0x3f243ce4	0.6415541
121	0xbeee11e2	-0.46498019
122	0xbf7e35f7	-0.99301094
123	0x3ec09ffa	0.37622052
124	0xbe6c77d4	-0.23092586
125	0xbeb9cf75	-0.3629109
126	0x3e573b9a	0.2101883
127	0x3e832345	0.25612846
128	0xbe23e63f	-0.160058
129	0xbf13c26f	-0.5771856
130	0x3e724408	0.23658764
131	0xbf27bc15	-0.65521365
132	0xbde22d58	-0.11043805
133	0xbe803e49	-0.2504752
134	0x3d39a958	0.045327514
135	0xbd0c3d58	-0.03423819
136	0xbe02250d	-0.12709446
137	0xbf091b5b	-0.53557366
138	0xbe357321	-0.177197
139	0xbdbe1daf	-0.092830054
140	0xbec55444	-0.38540852
141	0xbe7a2333	-0.2442749
142	0xbf3d3d33	-0.7392151
143	0xbe13eed3	-0.14446573
144	0xbe20b121	-0.1569257
145	0xbe95d162	-0.2926131
146	0xbcb53960	-0.022122085
147	0xbed73878	-0.4203527
148	0xbe404fcc	-0.1878044
149	0x3c3caada	0.011515344
150	0xbd00ba48	-0.03142765
151	0xbdefcfe8	-0.11709577
152	0x3cef52bd	0.029214257
153	0xbf25bb81	-0.64739233
154	0xbe1af6f3	-0.15133266
155	0xbc80b639	-0.01571189
156	0xbefd3ace	-0.49458927
157	0xbdd5bb30	-0.10436094
158	0xbf472d45	-0.7780345
159	0x3cecbeaf	0.028899519
160	0xbed974bb	-0.4247187
161	0xbeb54b3a	-0.35408956
162	0x3e5a121e	0.21295974
163	0xbeb5da59	-0.3551815
164	0x3b31fa00	0.0027157068
165	0xbe76f62b	-0.24117343
166	0x3dccecc4	0.10006097
167	0xbe4a4cf0	-0.19755912
168	0xbe3f3c7c	-0.18675417
169	0xbf329ba2	-0.69768727
170	0x3d8b9bbb	0.068168126
171	0xbefa008e	-0.48828548
172	0xbf389e02	-0.721161
173	0x3d851da4	0.06499794
174	0xbf56f666	-0.83969724
175	0xbbb770f7	-0.0055981833
176	0x3ed68413	0.4189764
177	0x3d5bc192	0.0536514
178	0xbd2b47b8	-0.041816443
179	0xbf6cd83b	-0.9251744
180	0x3e7f8eac	0.24956769
181	0xbf0225aa	-0.5083872
182	0xbe2ce24a	-0.16883197
183	0x3e3a0324	0.1816526
184	0x3eb4a2d5	0.3528048
185	0xbf8bf886	-1.0935218
186	0xbe9fefa0	-0.31237507
187	0x3f56a898	0.83851004
188	0xbf12ef61	-0.57396513
189	0x3f8b4f0b	1.0883497
190	0xbf880105	-1.0625311
191	0x3e1de89d	0.15420766
192	0xbe89d9fd	-0.26924124
193	0x3f0489c4	0.51772714
194	0xbe183516	-0.14864
195	0x3f03ed2a	0.5153376
196	0xbe24a7de	-0.16079661
197	0x3ef2ccf9	0.47422007
198	0x3e40de3e	0.18834779
199	0xbe1a8b3a	-0.15092173
200	0xbfaaa391	-1.3331167
201	0x3f2ee1b5	0.6831315
202	0x3e71747d	0.23579593
203	0xbf2b231c	-0.6685045
204	0x3f26314c	0.6491897
205	0xbef965cc	-0.48710477
206	0x3f4031e7	0.75076145
207	0xbe240e27	-0.16021024
208	0x3e48f1d0	0.19623494
209	0x3e1e2b59	0.15446223
210	0x3e789e44	0.24279124
211	0xbee65087	-0.44983312
212	0x3e2d5c08	0.16929638
213	0x3eae8155	0.34083048
214	0xbe69b030	-0.22821116
215	0x3b3f9b00	0.0029236674
216	0xbe82afeb	-0.2552484
217	0xbdb7663f	-0.08955049
218	0x4007364d	2.1126893
219	0xbe3e8950	-0.18607068
220	0xbe85269b	-0.26006016
221	0x3f182967	0.59438175
222	0x3ffabac2	1.9588244
223	0x3e22c21a	0.15894356
224	0xbef21fd0	-0.47289896
225	0xbe6eef4e	-0.23333475
226	0xbdeeac3e	-0.11653946
227	0x3f03be5d	0.51462346
228	0x3e759038	0.23980796
229	0xbf676bf5	-0.90399104
230	0xbd20d030	-0.039261043
231	0xbd19d5e0	-0.037557483
232	0xbeb224c1	-0.34793666
233	0x3d834542	0.06409694
234	0xc012de6a	-2.294825
235	0x3ec1aa11	0.37825063
236	0x3e975281	0.29555133
237	0x3fb65c18	1.4246855
238	0xbf3f69d9	-0.74770886
239	0xbcda7c00	-0.026670456
240	0x3da9f621	0.082988985
241	0x3db9b8bd	0.09068439
242	0x3ddaa665	0.106762685
243	0xbe461021	-0.1934209
244	0xbd0bfbd0	-0.034175694
245	0x3f8af7cf	1.0856875
246	0x3bd80d40	0.0065933764
247	0xbe6da838	-0.23208702
248	0x3e989572	0.29801518
249	0xbe392d63	-0.1808372
250	0xbf4ad511	-0.79231364
251	0x3e8dc4f1	0.27689317
252	0xbe52d79f	-0.20590065
253	0xbfbf9a4e	-1.4968965
254	0xbf9204ad	-1.1407677
255	0xbe178758	-0.14797723

decoder.4.bias f4 [18]
0	0xbf8725b4	-1.0558381
1	0x3a3f1b77	0.00072901644
2	0x3f3b7e63	0.73239726
3	0xbfc080c9	-1.5039302
4	0xbf5401a4	-0.82815003
5	0xbf990758	-1.1955366
6	0x3fa6f893	1.3044609
7	0xbf122e2d	-0.5710171
8	0xbda356dd	-0.07975552
9	0xbd457017	-0.0482026
10	0xbe606984	-0.21915251
11	0xbf820bb5	-1.0159823
12	0x3fbc2219	1.4697906
13	0x3c1a17a0	0.009405047
14	0xbf0d760c	-0.5525825
15	0xbc4e6a76	-0.012598624
16	0xbf0dc644	-0.55380654
17	0x3f9d22e8	1.2276278
