results/16_8_4_80DS_42/M_16_8_4_80DS.pth (torch, 9521 bytes, 14 tensors)

encoder.0.weight f4 [16, 18]
000000 4c 72 39 be 2e 30 8f bd c0 55 76 bd 20 f3 3d 3c
       -0.18110007 -0.069916114 -0.06014037 0.01159361
000010 4f de 03 be 88 cd 24 bd ec 0a 3c bd 80 c4 1c be
       -0.12877773 -0.040235072 -0.045908853 -0.15309334
000020 f2 fd a3 3d 76 4b 9a 3d e4 a1 52 3d fb f5 3a be
       0.080074206 0.07533924 0.051423922 -0.18257897
000030 57 3d 56 be 17 da 4a 3e 0f 68 52 be d3 ca 33 be
       -0.20921837 0.19809757 -0.20547508 -0.1755784
000040 d8 17 4d be a0 af d0 bd e2 be 44 c0 18 3e e7 3d
       -0.20028627 -0.10189748 -3.0741506 0.1129114
000050 4a 42 12 bd 41 f6 ba 3f f2 2b ae bc 14 09 86 bc
       -0.03570775 1.4606401 -0.02126119 -0.01636175
000060 93 f6 ab bf b7 e5 c6 3f 38 31 ab bb 90 0d 0d 3e
       -1.3434623 1.5538853 -0.005224373 0.13774705
000070 e1 69 5a 3e 82 f1 8a bf fb 82 bd bc b9 cf be bf
       0.21329452 -1.0854952 -0.023133745 -1.4907142
000080 ab 32 46 bf 15 96 21 bd ed ec 3a 3d 53 f4 07 bf
       -0.77421063 -0.03944977 0.045636106 -0.53107184
000090 cc cc 03 c0 3b e8 4e 3d 27 ad 11 3e 87 51 a0 3f
       -2.0593748 0.05051444 0.14226209 1.252488
0000a0 64 83 06 3f ee 6b 87 3e cb 38 bc be 08 bd 83 3f
       0.52544236 0.2644953 -0.3676208 1.0292063
0000b0 c9 12 e0 3d 63 2c 9f 3d 70 08 c0 bd 46 a9 d2 bf
       0.10941083 0.07772138 -0.09376609 -1.6457908
0000c0 2a 33 0d 3e 64 e0 f5 bf 94 24 3b 3d 21 07 15 bf
       0.13789049 -1.9209104 0.04568918 -0.58214
0000d0 f7 ed 65 bc 50 3d 1c 3d e8 a8 44 3c 53 69 3a be
       -0.014033786 0.03814441 0.012003161 -0.1820424
0000e0 d4 89 85 bd dd bb 89 3e 5e 7e e3 3e 2a e9 b0 3d
       -0.06520429 0.2690114 0.44432348 0.086382225
0000f0 60 b2 3d bf 10 22 4d 3e 51 c1 3d be 3e 66 80 be
       -0.74100304 0.20032525 -0.18530776 -0.25078005
000100 ec ce 4a 3d 3b d6 4d 3f 9e 13 93 be 9a 00 8d bf
       0.049513742 0.80405015 -0.28725904 -1.1015809
000110 cd b7 d5 be 2e b4 74 3e 9b 9e 8c 3e f7 6d 3c bf
       -0.4174179 0.23896858 0.27464756 -0.73605293
000120 8b 11 c7 3e 2e 8c 0b 3f 84 00 a8 3d 9b f2 b0 be
       0.38880572 0.5451077 0.08203223 -0.34560093
000130 97 7d 52 bc 49 90 ff 3d 57 d8 77 be ea 9a 3f 3f
       -0.012847326 0.12478692 -0.24203621 0.74845755
000140 c9 69 60 be 36 74 2b 3d d6 c7 c0 3d 5d 88 b1 bd
       -0.21915354 0.041858874 0.09413116 -0.08668587
000150 d2 69 24 3f 70 a7 1d bf 9b 50 dd 3e 44 b1 f2 bb
       0.6422397 -0.61583614 0.4322556 -0.0074063856
000160 c4 ec 1c 3f 6e 41 75 be 67 31 10 3e 09 14 0d 3e
       0.61298776 -0.2395074 0.14081345 0.13777174
000170 34 e5 65 be f0 95 78 bc 60 f6 f9 bb 00 49 33 3c
       -0.22450715 -0.015172467 -0.007628247 0.0109426975
000180 5a 5f 59 be f8 85 63 be ac 70 01 3d 88 63 44 bd
       -0.2122778 -0.22219074 0.031601593 -0.047946483
000190 2d 73 55 3e f6 b3 c0 3d f4 d3 05 3d ca db 03 be
       0.20844717 0.09409325 0.032672837 -0.12876812
0001a0 d5 fa 10 3e fc bc 7b 3d 93 e9 2b be b2 d6 c8 bd
       0.14158185 0.061459526 -0.1678832 -0.09806575
0001b0 80 dd ba 3e e6 ff ef bd 6d 30 74 be eb 7d 6a bf
       0.36497116 -0.11718731 -0.23846598 -0.91598386
0001c0 bf 7e 90 bd e6 c2 b0 3d 9c f0 24 bf 91 b9 74 3f
       -0.07055425 0.08630924 -0.6442964 0.9559565
0001d0 a3 17 50 3e 19 de 4d 3e 7e e6 29 be 45 d2 ac 3e
       0.20321517 0.20104255 -0.16591832 0.33754173
0001e0 ab 28 89 3c 02 17 00 3f 6d 80 73 3f 9e 11 58 bf
       0.016743025 0.5003511 0.9511784 -0.8440188
0001f0 9f 49 32 3f 21 a3 05 bf f3 36 04 3e ca f2 20 3f
       0.69643587 -0.5220204 0.12911586 0.62870467
000200 47 73 9c 3e 1a 17 6c 3f a6 6a f6 3e 8d 6d 21 3e
       0.305567 0.9222275 0.4812824 0.15764447
000210 ba f7 00 be 5e 05 20 3e 06 8a 06 3e f5 52 18 3e
       -0.125945 0.15627047 0.1313859 0.14875396
000220 24 37 b6 bd 63 74 c6 3c 77 d0 20 3f 87 65 b0 3c
       -0.08897236 0.02422542 0.6281809 0.021532787
000230 9d 11 0d 3e 63 f4 01 bf dd 30 b4 3d 0b 87 7d be
       0.1377625 -0.5076353 0.087983824 -0.24758546
000240 29 0c 86 3d e5 d2 df 3e d6 44 bf 3e 37 9b 7b 3e
       0.06545288 0.43715587 0.37357205 0.24570929
000250 8f 5d fb 3e 94 de e9 3e 12 fe 89 bd 34 b7 4f 3f
       0.49094817 0.45677626 -0.06737913 0.8113892
000260 2e 28 9c bb 1b b3 c1 bd 64 70 19 3d 96 92 b6 3c
       -0.004765532 -0.0945799 0.0374607 0.022286694
000270 52 e9 15 3f d0 29 01 bf 84 90 95 3e b0 0c 02 3e
       0.58559144 -0.50454426 0.2921182 0.12700152
000280 d3 8a 8d 3e e5 8d ed bd 69 f9 4e bb d5 ae 86 3d
       0.27644977 -0.1159933 -0.0031581766 0.06576315
000290 34 e2 31 3f 39 21 9d 3e e6 ec 90 bd 3b d0 5f 3d
       0.69485784 0.3068941 -0.07076435 0.054641943
0002a0 81 f3 f0 3d 1d 58 7a be d1 8a dd bd 92 d9 7f 3e
       0.11765195 -0.24447675 -0.10817493 0.2498534
0002b0 64 97 69 3d c5 62 af 3d d8 fe e9 bd ee d6 9b 3e
       0.057029143 0.08563761 -0.11425561 0.30437416
0002c0 45 95 3c be e2 3f 5a 3f 96 bd 4d 3d 27 36 07 be
       -0.18416317 0.8525373 0.05022963 -0.13204251
0002d0 9d 45 9e be 7d 51 b1 3e 22 53 e6 3d f6 1b 26 3f
       -0.30912486 0.34632483 0.11246325 0.64886415
0002e0 47 e8 eb 3d 32 fc 49 bd a3 5c 12 be 2d fb 80 3f
       0.11518913 -0.049312778 -0.1429315 1.0076653
0002f0 31 d6 90 3d 39 ea 2a 3d fc ec 11 be 50 59 02 3f
       0.07072104 0.04172728 -0.14250559 0.5091753
000300 a2 fb 92 3e 79 7d 2d be 78 59 c4 3e 2b 39 49 bf
       0.28707606 -0.16942395 0.3834951 -0.78602856
000310 92 8d 80 3d 87 f2 c6 3e 75 9e 06 bc 04 60 36 3e
       0.062770024 0.3885691 -0.00821649 0.17810065
000320 a4 b2 a3 3d 63 c6 1f 3f c7 15 7e 3e 1e e7 c4 3e
       0.07993057 0.6241209 0.24812995 0.38457578
000330 71 e0 18 3f ef a8 92 bd 7f 21 28 3e 80 1a e5 bd
       0.5971747 -0.07161128 0.16419028 -0.11186695
000340 d6 97 05 be 61 64 d4 be 87 7a 0e 3f 79 27 26 bf
       -0.13046202 -0.41482833 0.5565571 -0.6490398
000350 ee 60 9f 3e ca b0 e1 bd 61 93 c5 3e 95 ff cb 3e
       0.3112864 -0.11020048 0.38589004 0.3984343
000360 b7 6b e6 3e 10 1f a1 3e 84 a9 89 bc 4d 26 12 3f
       0.45004055 0.3146901 -0.016804464 0.5708969
000370 1a 2d 02 3f d3 12 08 bd 2a 32 0f bf 36 1a 58 3f
       0.5085007 -0.033221077 -0.5593592 0.84414995
000380 ad 7f 01 be 97 0c 8b be e3 35 1f 3e f3 b8 b6 3e
       -0.1264636 -0.27158043 0.155479 0.3568798
000390 62 e6 5e 3e dd ff 26 3e 13 fb 16 3e 95 6f 41 bf
       0.21767572 0.16308542 0.14744215 -0.75560886
0003a0 9a b6 97 bd 1f d1 96 be 66 2d 57 bd 44 c4 fe 3d
       -0.07407875 -0.29456422 -0.05253353 0.124397784
0003b0 c3 8e 8f 3e 21 9e 0e 3f ef c9 61 3f 0c 54 f1 3e
       0.28038606 0.55710036 0.8819875 0.47134435
0003c0 40 b8 48 bf c8 81 d6 be 6d f1 30 be bf a9 85 3e
       -0.78406143 -0.4189589 -0.17279597 0.26106068
0003d0 78 c2 95 3c ed 2f c5 3d ce 1d ce be 4d ea 1e 3f
       0.018281206 0.09628282 -0.40257114 0.62076265
0003e0 20 00 c3 bf 83 31 d8 3e b2 9e 9e 3d ff fb 3c bf
       -1.5234413 0.42225274 0.077451125 -0.73822016
0003f0 d0 af 9c 3d 55 c7 3b be 01 37 d2 3d c6 e6 38 bd
       0.07650721 -0.18337758 0.102643974 -0.045141958

encoder.0.bias f4 [16]
000000 fd 58 4f be cf 74 02 bf 13 dc e7 be d1 f2 b3 be
       -0.2024879 -0.50959486 -0.4528509 -0.35146192
000010 d3 09 af 3e e0 68 3d be 07 24 a9 3e 75 34 48 3e
       0.34187183 -0.18497038 0.330353 0.19551261
000020 85 cd 3b be 55 67 52 3f 61 5b 1b be 06 98 35 3f
       -0.18340118 0.8218892 -0.15171577 0.70935094
000030 f1 41 4e 3e f8 16 ba 3d ee 3b 59 bd 8d 32 e1 bd
       0.20142342 0.09086412 -0.05303567 -0.1099597

encoder.2.weight f4 [8, 16]
000000 e4 d3 fa 3d c3 37 06 be 00 eb 72 3f 37 43 5c 3e
       0.12247446 -0.13107209 0.9488983 0.21510015
000010 1d a0 4a bf fc e9 56 be 22 69 27 3e 58 c6 a2 3e
       -0.79150563 -0.20987695 0.16348699 0.3179195
000020 0a 23 bd be c1 9e cd bc 81 27 ca 3e 05 0c 97 bd
       -0.36940795 -0.025100114 0.39483264 -0.073753394
000030 92 cf 46 3e ab c3 1f bf f8 9a e0 3d 2e a9 1f 3f
       0.1941512 -0.6240794 0.10967058 0.6236752
000040 e8 63 57 bd ea 34 88 3e 99 e9 9f 3e 60 67 43 bf
       -0.052585512 0.2660287 0.31232908 -0.7632961
000050 41 7a ae be 9a cf 53 be 40 45 80 bf ff 9d 2e 3f
       -0.34077647 -0.20684662 -1.0021133 0.6820983
000060 23 8d 10 bf 76 66 74 3d 3b 37 73 3d e5 ad 3a 3f
       -0.5646536 0.059668027 0.059378844 0.7292159
000070 9e 67 c8 3e 93 dc f6 be 6f ec e9 bd 35 ea 44 3f
       0.39141554 -0.4821516 -0.11422049 0.7691987
000080 60 23 71 bc b5 f1 99 3f f6 c0 88 3f bf 00 a4 3d
       -0.014717907 1.2026888 1.0683887 0.08007955
000090 fc d1 f0 3e b2 af 1e 3e 92 6c 56 bf 60 52 2e 3f
       0.47035205 0.1549671 -0.83759415 0.68094444
0000a0 ff f8 22 3f 11 3c da be 12 7f 31 3f f5 3b be 3e
       0.6366119 -0.42623952 0.6933452 0.3715512
0000b0 75 08 7c 3f 4c 19 c8 3d 52 da 3c 3e 5b 7c b0 3e
       0.98450404 0.0977045 0.18442658 0.34469876
0000c0 08 93 8f 3d cf 7f 92 bf 82 2e af be 74 ba ee bf
       0.07010466 -1.1445254 -0.3421517 -1.8650651
0000d0 5d 90 95 bf da 80 5d be 1f 24 f8 be 20 2b 6b be
       -1.1684681 -0.21631184 -0.48465058 -0.2296567
0000e0 88 82 90 3e 29 a4 8b 3e 2c cd e0 bd 69 a5 66 3f
       0.28224587 0.27273682 -0.109766334 0.90096146
0000f0 e6 c5 55 bf 59 0a ff 3d 02 6b 2b be ee 49 1e bf
       -0.83505094 0.124531455 -0.16740039 -0.6183156
000100 72 63 2d 3e 82 0c db be 0f 47 f5 be e2 21 04 3f
       0.16932467 -0.4278298 -0.47905776 0.516142
000110 af a6 de bd 4e c6 23 3e 5e 27 55 be 69 66 0b be
       -0.10871636 0.15993616 -0.20815799 -0.13613285
000120 7b 39 03 be 61 26 1c 3f 18 15 06 c0 64 ab d7 3e
       -0.12814896 0.6099606 -2.0950375 0.42122948
000130 5b 32 2d bf b4 a1 2c 3f 92 80 31 3e ca 5e 79 bf
       -0.6765496 0.6743424 0.17334202 -0.9741026
000140 aa 51 3b 3e 5f 90 b2 3f 93 ff aa 3f 67 df 52 bf
       0.18292871 1.3950309 1.3359245 -0.82372135
000150 dc cf 8b 3f 00 1e 9f bd 08 2d 16 bf eb 93 31 3f
       1.0922809 -0.07769394 -0.5866246 0.6936633
000160 e0 26 82 3d e1 a9 08 bf 5c 7a 27 3f 4a a9 65 3e
       0.06355071 -0.53384215 0.6542108 0.2242786
000170 aa d0 72 3f 71 8c 9c bf be 07 e3 bd 14 ec 96 3f
       0.94849646 -1.2230359 -0.11085461 1.1790795
000180 2e 04 08 be 21 0b 4d be dc 8c ed be 82 05 a1 bf
       -0.13282844 -0.20023777 -0.4639653 -1.2579806
000190 3c 97 89 bd 78 94 b9 3d 22 11 fa 3e 03 39 db 3e
       -0.06718299 0.09061521 0.48841196 0.42816934
0001a0 c7 30 a4 be 1c 1c ec 3e f7 18 a6 3e 80 dc 1d 3f
       -0.32068464 0.46115196 0.32440922 0.6166458
0001b0 6d 0c 22 3e 81 9a b7 be cb 3a 36 be 49 f1 4d 3f
       0.15825053 -0.35860065 -0.17795865 0.80446297
0001c0 30 7f e5 3c 38 b6 04 40 6a 58 0d 40 d0 85 e2 be
       0.02801475 2.0736217 2.2085214 -0.44242716
0001d0 a9 74 04 3e d0 24 03 3d 31 15 e7 bf 99 84 2d 3f
       0.12935127 0.03201753 -1.8053342 0.6778045
0001e0 3e 71 ea 3d 77 7c 84 bf 34 56 30 3f 92 fd 88 3e
       0.114473805 -1.0350484 0.68881536 0.2675596
0001f0 96 3e 2a 3f a8 41 ae bf 07 c2 10 3e da a8 17 3f
       0.6650175 -1.3613787 0.14136516 0.5924202

encoder.2.bias f4 [8]
000000 58 24 18 bc 0f 3f cf 3e 01 e5 91 3e 4f 24 13 be
       -0.009286009 0.40477797 0.2849503 -0.1436932
000010 d5 54 80 3e 02 65 e5 3d 74 83 14 3f 20 11 5c bf
       0.25064722 0.11200906 0.5801308 -0.8596363

encoder.4.weight f4 [4, 8]
000000 ac 5c 1f 40 ec 5b 5a 3f d9 0b f9 3e e4 7c f8 bf
       2.4900312 0.8529651 0.48641852 -1.9413114
000010 ff 03 c8 3f 57 13 96 3f 09 4e 0f 3f 4f 9e 74 3f
       1.562622 1.1724652 0.5597845 0.9555406
000020 01 ef dd 3f a4 9c 73 3f df fe c9 be 51 f6 25 be
       1.7338563 0.9516089 -0.39452264 -0.16207244
000030 06 8e 8d 3e 03 da 98 be b7 59 e7 3d 1c ec 23 bf
       0.27647418 -0.2985383 0.112964086 -0.6403215
000040 0c 5c 0d 3e 88 3d 6a be 11 42 5d be 1a c9 42 be
       0.13804644 -0.22875035 -0.21607234 -0.19022027
000050 8a 89 f2 bd 00 02 b3 be 9b 4e 80 3e a3 c8 fd be
       -0.1184264 -0.34962463 0.2505997 -0.49567136
000060 89 64 c5 be 0a 1c 09 bf c9 10 33 3f 68 9f 0d 3f
       -0.38553265 -0.5355841 0.6994749 0.5532136
000070 54 7a f3 bf 4c d0 6d 3e 4f 90 56 bf 02 a8 03 3f
       -1.9021707 0.2322399 -0.8381395 0.51428235

encoder.4.bias f4 [4]
000000 fd e4 01 bf c8 74 3c be 93 89 36 3d e9 4a 3f 3f
       -0.50740033 -0.18403924 0.044564795 0.7472368

bottleneck.weight f4 [4, 4]
000000 ee 41 23 3f 05 e9 04 40 46 cc ac 3d 25 f3 fe be
       0.63772476 2.0767224 0.084373996 -0.4979488
000010 86 46 44 3f 70 b6 3d 40 86 68 88 3c 33 24 98 bf
       0.7667011 2.96426 0.016651403 -1.1886047
000020 23 45 5b 3f bf ab 30 3e 5c 8b 04 bf f8 89 a6 3f
       0.8565237 0.17253016 -0.51775146 1.3010855
000030 87 39 e0 3d 17 4a d0 bf 96 8a 27 bf 20 63 8a 3f
       0.109484725 -1.627261 -0.6544584 1.08115

bottleneck.bias f4 [4]
000000 45 49 71 bf 4d 07 83 3d 92 54 b1 3c 7e eb 22 3f
       -0.94252425 0.06397877 0.021646772 0.6364058

decoder.0.weight f4 [8, 4]
000000 7c 0a 37 bf b4 d0 8c bf 1a 4c 97 3e 93 fe 3f 3f
       -0.7150037 -1.1001191 0.29550248 0.74997824
000010 d5 f6 9b bf de 28 63 bf bb ea 73 3e 1b a2 34 3f
       -1.2184702 -0.88734233 0.23820011 0.70559853
000020 d2 4b 57 bf 66 44 9e bf 6c 9e 2e 3f ac 48 ba 3e
       -0.8410007 -1.2364624 0.6821048 0.3638357
000030 54 76 89 be c3 8c 45 be fa bf 46 3f 94 99 78 3f
       -0.2684809 -0.19291978 0.77636683 0.9710934
000040 00 32 39 3c 8c f5 16 be 30 86 50 be 20 10 99 3c
       0.011303425 -0.14742106 -0.20363688 0.018684447
000050 28 12 5b 3f 3a e9 67 3f a5 98 77 3f 7d 52 e6 3e
       0.8557458 0.9059025 0.9671729 0.4498481
000060 6a 32 da 3e ac 1c b6 be d8 42 c1 be 04 c3 7a be
       0.42616588 -0.3556875 -0.3774631 -0.24488455
000070 02 0c f6 be 08 b4 fa be 54 9f e0 be f4 f0 e6 be
       -0.48056036 -0.48965478 -0.43871558 -0.45105708

decoder.0.bias f4 [8]
000000 c5 0c f7 be 43 8d 84 3f da dd 00 bf ba b1 05 40
       -0.4825193 1.035561 -0.5033852 2.0889726
000010 0e e7 8f be 16 c9 ae be e0 54 b9 be 66 67 b5 be
       -0.28105968 -0.3413779 -0.36197567 -0.3543045

decoder.2.weight f4 [16, 8]
000000 5a 78 67 be be 15 44 3f 4a ad b8 bc f1 62 0c 3f
       -0.22604504 0.76595676 -0.022543568 0.5483847
000010 65 f2 93 3e 2b c6 94 bd d9 98 b3 3e cc ba f9 3d
       0.2889587 -0.0726436 0.3507755 0.12193832
000020 96 fd 82 be 18 5d a3 be 0c b8 6c be 20 e8 cf 3d
       -0.25584096 -0.31906962 -0.23117083 0.10151696
000030 98 95 3c 3d 49 11 32 be aa 81 e4 bd 40 6e dd 3d
       0.0460411 -0.17389406 -0.11157544 0.10812044
000040 a3 4c 07 bf 00 b8 5d 3f 86 a3 f7 3b a2 99 d9 3e
       -0.52851313 0.86608887 0.0075573353 0.42500025
000050 3f c1 14 be 9e d3 46 bc c3 d6 3b be a0 01 b8 bc
       -0.14526843 -0.012135414 -0.18343644 -0.022461712
000060 76 39 11 3f b5 f0 01 be 67 b7 da 3e dd cc 2a 3f
       0.56728303 -0.12689479 0.4271805 0.66718847
000070 f4 73 bb bd d0 c9 5d 3e 8e 5a 95 be 50 4c d1 3d
       -0.09152976 0.21659017 -0.2917065 0.102196336
000080 36 0a 40 bf 6d d9 8f bf 20 73 09 3f e1 d0 ab be
       -0.7501558 -1.1238228 0.5369129 -0.335578
000090 d9 d8 85 3e 2e 8d c8 3e da 3d 67 3e e0 ca 7b 3d
       0.26142004 0.39170212 0.22582188 0.061472774
0000a0 de 14 3f bf 9c 4f 68 bf aa cc 01 bf 83 31 91 3e
       -0.74641216 -0.90746474 -0.5070292 0.28358087
0000b0 f5 29 23 be f9 93 49 3f 8a db 55 3e fc 34 80 bd
       -0.15933974 0.78741413 0.20884529 -0.06260106
0000c0 d3 15 74 bf 01 90 9c bf 76 8a fb be da 14 28 3f
       -0.953458 -1.2231447 -0.49129075 0.65656817
0000d0 72 af 56 3e f7 c5 f1 3b ce 82 66 3e d8 ae 04 3e
       0.20965365 0.0073783356 0.22510836 0.12957323
0000e0 a7 f4 fe bd c2 cf c7 bd 38 5f 9a 3e ec 3e 7e 3d
       -0.124490075 -0.097564235 0.3015077 0.062071726
0000f0 40 5f c7 3b ca f1 e9 3e 9c fb 83 bd 38 bd 46 bd
       0.0060843527 0.45692283 -0.06444475 -0.048520297
000100 5e 4d 14 bf 95 00 4a bf b1 7f 36 bf a4 e0 5f 3e
       -0.5793055 -0.7890714 -0.7128859 0.21863037
000110 01 68 58 be 5e 25 bb 3e 57 e9 92 3e b8 8d 78 bd
       -0.21133424 0.36551946 0.2869365 -0.06068203
000120 be 45 87 be 62 74 f9 bd 3b 1c 97 be 27 a3 5d be
       -0.26420397 -0.121804014 -0.29513726 -0.21644269
000130 b5 66 ae 3e 00 80 9f 39 c0 17 f2 bb 5e 60 4c be
       0.34062734 0.0003042221 -0.007388085 -0.19958636
000140 fc d7 f9 3e 90 27 55 be 91 3c d4 3e b7 39 09 3f
       0.48797596 -0.20815873 0.41452459 0.5360369
000150 40 b5 bb 3b 65 eb 07 3f aa 44 b1 be a7 b5 5a be
       0.005728394 0.5309356 -0.346227 -0.21358357
000160 00 d9 5f bd 82 9d 41 3f 5e 0b 1c be 5f 84 f4 3e
       -0.054650307 0.7563096 -0.15238711 0.4775724
000170 ab a8 ac 3e c5 1f 53 bd 70 95 55 3d a6 31 59 be
       0.33722433 -0.05154397 0.052144468 -0.21210346
000180 63 62 09 3f dd 0a d3 be f3 38 1c 3f cf 7e 48 3f
       0.5366575 -0.41219226 0.610244 0.78318495
000190 e4 de 12 be 42 3d fa 3e 68 9a 22 bd de da 14 be
       -0.14342839 0.4887486 -0.039698035 -0.14536616
0001a0 5d 81 ec 3e 1b 8a b1 3e c6 50 03 3f 84 38 d9 3e
       0.46192446 0.3467568 0.51295125 0.4242593
0001b0 51 8a a1 be 68 06 f3 3e 0c 17 9b be e0 96 b6 bc
       -0.3155084 0.47465825 -0.3029102 -0.02228874
0001c0 e1 81 69 3f 04 d3 4b 3e c9 e6 f0 3e 2d 06 da 3e
       0.91213804 0.19904715 0.47051075 0.42582837
0001d0 10 85 15 3d 94 5f ec be 69 56 a7 3e c0 fc d7 3d
       0.03650385 -0.4616667 0.32683113 0.10546255
0001e0 67 61 b7 3e 91 08 9d 3f a3 5a 21 3f ea f7 d2 3e
       0.358165 1.2268239 0.63028926 0.41204768
0001f0 2c 83 be bd ec 65 09 be c6 7f 8c be 14 85 af 3d
       -0.09302363 -0.13417786 -0.27441233 0.085703045

decoder.2.bias f4 [16]
000000 00 54 65 3f a3 25 2b 3e b2 1d 0e 40 dd 2f aa 3e
       0.895813 0.16713576 2.2205625 0.33239642
000010 b4 50 19 3e ef 9d 9a 3e 8a 98 f7 bf 39 87 24 be
       0.14972192 0.3019862 -1.9343426 -0.16067208
000020 c8 3e 6e bf 17 e1 86 be 95 0b d5 be 2e 3a 24 40
       -0.93064547 -0.26343605 -0.416104 2.566051
000030 76 9c 14 bf ef 21 ce 3f b8 73 97 bf c1 7c 38 3f
       -0.5805124 1.6104106 -1.183219 0.7206536

decoder.4.weight f4 [18, 16]
000000 33 5b b7 be 3e 0e 9c bd 43 0f ea be 32 b0 05 3d
       -0.35811767 -0.07619904 -0.4571477 0.032638736
000010 f5 44 e0 be 24 8c d9 bd 99 c3 b9 bd 94 28 31 be
       -0.4380261 -0.10622433 -0.090705104 -0.17300636
000020 2c f5 9c 3e 8e 5b 5f 3e cc 6e 4d bd 31 0c 12 be
       0.306558 0.21812269 -0.050154492 -0.14262463
000030 e1 c7 af 3e d4 0c 08 3e af 87 1b 3f 3c a2 ff be
       0.34332183 0.13286144 0.6075391 -0.49928463
000040 2d 1f 09 3c 06 c3 26 3e 46 60 70 3e 79 0e 33 be
       0.008369249 0.16285333 0.23474225 -0.1748599
000050 76 55 c3 bb 32 21 9c bc d6 07 02 be 69 2b 2d be
       -0.0059611155 -0.019058798 -0.12698302 -0.16911091
000060 27 0c 36 3e 50 d4 5c 3d 14 c7 1f 3e e7 a5 0e 3d
       0.17778073 0.053913414 0.15603286 0.034826186
000070 5b 21 d0 b9 07 2d 27 bd 76 0b 78 be 56 f5 37 3e
       -0.00039697703 -0.040814426 -0.24223122 0.17964682
000080 aa e3 fc 3d 15 4f 55 3e e5 07 65 bd 34 b1 0d 3d
       0.12348111 0.20830949 -0.055915732 0.034592822
000090 60 cc 82 3d a2 83 ac 3c fa 9e 8d 3e 1c 1b bf 3e
       0.06386638 0.021058861 0.27660352 0.3732537
0000a0 2f 37 cd be d0 5e 98 3d 1d e3 1b 3e 0d 1c 31 3d
       -0.40081164 0.07439959 0.15223356 0.043239642
0000b0 46 06 52 be 4a df 04 be f8 bf 3a 3e 28 6b ee bd
       -0.20510206 -0.12975803 0.18237293 -0.11641532
0000c0 0f de 05 bf e9 d8 80 bd a0 41 80 be e9 5f 48 3e
       -0.5229196 -0.06291372 -0.25050068 0.19567837
0000d0 32 83 dd 3e fd 74 02 bf 73 34 0a 3f 08 c3 cf 3d
       0.43264157 -0.5095976 0.5398628 0.10144621
0000e0 f2 e8 3f be 9e be 4c 3e ad 22 8e 3e 68 89 a4 bd
       -0.18741205 0.1999459 0.2776083 -0.08034021
0000f0 c3 02 a3 3d 33 d1 c9 3d b3 07 af 3e ea 15 aa be
       0.07959511 0.09854355 0.34185562 -0.33219844
000100 fd fe f2 bc b2 b9 79 3e f4 88 aa be 2b 87 a0 3d
       -0.029662604 0.24387243 -0.33307612 0.07838281
000110 94 20 a5 bf 6c 3d 25 3f de ed 1b bf 34 3a 25 be
       -1.2900567 0.6454685 -0.6090983 -0.16135484
000120 49 19 04 3f a4 7d 7c 3e 51 6b 67 3c 8a bc 08 be
       0.5160108 0.24657303 0.014124707 -0.13353172
000130 38 bc 1c bd 6a d9 55 be e6 d2 6d 3f 2e 61 1e bd
       -0.038265437 -0.20883718 0.9289993 -0.038666897
000140 46 29 a8 be 3c 7c 07 3d 9b 64 26 3d 64 b0 4e 3e
       -0.3284399 0.033077464 0.04062329 0.20184475
000150 dc a7 9b be b7 07 5f 3e aa f5 35 be 1e e9 90 be
       -0.30401504 0.21780287 -0.17769495 -0.28302854
000160 fe 53 14 3e 3c 0c 54 3e 13 2a 29 3e d7 46 9e 3c
       0.14485165 0.20707792 0.16519956 0.019320888
000170 d7 7a b5 bd 75 8e 1f be f2 6b 81 3e c7 8f 91 3c
       -0.088613205 -0.15581687 0.25277668 0.017768754
000180 4e 5c e6 bf 64 d4 74 be 07 bc ac bf 67 03 2b bf
       -1.7996919 -0.23909146 -1.3494881 -0.66802067
000190 93 e3 90 3f eb 26 6f 3f f5 f9 1f be c5 6c 84 3f
       1.131945 0.9341876 -0.15622695 1.0345694
0001a0 9c d4 7e 3f e4 00 c9 3d d9 60 b2 be b4 90 e7 bf
       0.99543166 0.09814623 -0.34839514 -1.8091035
0001b0 72 bd d7 be 0f c4 bb be 03 8d f9 bd 74 17 d4 bf
       -0.42136723 -0.36673018 -0.12185099 -1.6569657
0001c0 1d aa 3f be c2 2a be bb 4b 09 09 be f3 ea 12 3e
       -0.18717237 -0.005803437 -0.13382451 0.14347439
0001d0 83 c3 b5 be 5e 4f d3 be 73 30 76 3f ba fd 2f bf
       -0.35500726 -0.4127149 0.9616768 -0.6874653
0001e0 c0 7b ac be e6 73 06 be 4a b9 8d 3e 7a 7a 3d 3e
       -0.33688164 -0.13130149 0.27680427 0.18503752
0001f0 44 f3 d7 3e db b2 a8 3d ad 82 a2 3f 1b 3d c5 3d
       0.42177784 0.08237239 1.2696129 0.096307956
000200 6e 84 e0 be 42 47 6d 3c 3e a7 de be 12 6a c7 be
       -0.43851036 0.014482321 -0.4348697 -0.38948113
000210 f5 a6 a6 3d 99 43 24 bf 4b 32 b8 bd 96 59 22 bf
       0.08137313 -0.64165646 -0.089939676 -0.6341795
000220 e1 bc 4c bf e0 78 4b 3d 7e 72 ec be 96 dd d1 be
       -0.79975706 0.049675822 -0.461811 -0.4098937
000230 20 a5 6e be e5 93 d2 bd 4b e0 15 3d 7b b0 ad be
       -0.23305178 -0.10282115 0.036590856 -0.33923706
000240 6b 15 aa be b8 77 18 be 12 db ea be 35 16 40 3e
       -0.33219466 -0.14889419 -0.45870262 0.18758471
000250 88 1f 4f bd ad 3a 46 bf 27 92 9a be 48 a4 75 be
       -0.05056718 -0.7743328 -0.3018963 -0.2398845
000260 6c 2c fb be f4 ec 15 3e c4 1e ef 3d 7d e9 2f bf
       -0.4905733 0.14641172 0.1167579 -0.6871565
000270 ec 0b 88 3c 6b 4a 95 be 34 bc 9f 3e f1 02 27 3c
       0.016607247 -0.2915834 0.31198275 0.010193572
000280 54 79 05 bf 86 7c f5 bd 62 44 a5 be ac 0d 94 bd
       -0.5213826 -0.119866416 -0.32278734 -0.0722917
000290 f8 a2 80 bd a3 b1 3f bf c4 23 c5 be 26 50 f9 be
       -0.06281084 -0.7488043 -0.3850385 -0.4869396
0002a0 6b 3b 1d bf 40 ce 3e 3d 55 41 f8 be eb e7 85 be
       -0.6141879 0.046583414 -0.48487344 -0.26153502
0002b0 4b 9c a5 be 38 ea ef be 9c 78 6b 3d 90 f2 70 bd
       -0.32345805 -0.46858382 0.05748807 -0.058825076
0002c0 9e be a8 3e 4e 5b 16 3e 7c 85 37 3f 6d 92 ca 3a
       0.3295793 0.14683267 0.71688056 0.0015455015
0002d0 69 89 4f 3f 3a 8d 7e be 98 7e a1 3f 7c cd 25 bf
       0.81069046 -0.24858561 1.2616758 -0.6476667
0002e0 59 f8 03 bd c0 fa 19 3e cd 2f d1 be 28 37 6a 3f
       -0.032219265 0.1503706 -0.40856782 0.9149041
0002f0 34 6f d2 be 30 60 31 3d e3 a2 57 3f f5 9f bf bc
       -0.41100466 0.043304622 0.8423292 -0.023391703
000300 d3 17 7a bf 7c 8e 46 3e 70 01 b7 bf 38 41 0f 3f
       -0.976926 0.19390291 -1.4297314 0.5595889
000310 88 20 21 bf 97 b5 0c 3e a0 54 56 bf 39 a6 94 3e
       -0.62940264 0.13741146 -0.8372288 0.29033068
000320 97 27 a3 3e 00 22 5f be ba 85 f0 3e c9 93 6b bf
       0.31866142 -0.21790314 0.46977025 -0.9202238
000330 ce c9 1a 3f ad ca b1 be f6 a9 45 bf 07 32 f5 3e
       0.6046418 -0.34724942 -0.77212465 0.4788973
000340 68 d5 dd 3d b4 7f 3e be d3 ff 83 be bb a1 43 be
       0.1083172 -0.18603402 -0.25781116 -0.19104664
000350 58 d5 ba 3d e9 b4 0e 3e 1f ce f6 bd 5c f6 45 be
       0.09122723 0.13936199 -0.12051033 -0.1933226
000360 63 f1 cf 3e 40 75 ad bb 03 90 d4 3d f1 ca 17 bf
       0.4061385 -0.0052935183 0.103790306 -0.5929404
000370 e7 36 be 3c 60 3e 82 be 31 43 8b bf 31 88 40 3f
       0.023219539 -0.25438213 -1.087988 0.7520781
000380 53 e5 21 bf 3b 23 02 3e b2 7f ce be c6 d1 e9 3d
       -0.63240546 0.12708752 -0.403318 0.11416964
000390 f0 82 49 bf b9 71 3b 3e ea 16 d8 3f 59 0c 08 bc
       -0.7871542 0.183051 1.6881993 -0.008303725
0003a0 6d c5 51 3f da da 2f 3e d0 0b 1b 3d 49 15 5d be
       0.8194187 0.17173329 0.037853062 -0.21590151
0003b0 b8 95 24 3e 66 09 19 bf a2 05 0d bf 46 b7 8b bf
       0.16072738 -0.59779966 -0.5508672 -1.0915306
0003c0 7f 07 3e 3e 26 c9 98 bc 79 4a 6f 3f d7 b4 d6 3d
       0.18557547 -0.018650603 0.9347301 0.10483711
0003d0 7f eb 0b 3f 2c 97 8c be 96 4e eb bf 53 f5 7c be
       0.54656214 -0.27459085 -1.8383358 -0.24702959
0003e0 e5 cd 36 bf 24 3b 53 3e 38 b6 92 bd bd 3e 18 3f
       -0.7140792 0.20628029 -0.07163662 0.5947073
0003f0 b5 94 ba 3d b2 a3 b5 3e 2d 40 d5 3e c3 25 06 be
       0.09110395 0.35476452 0.41650525 -0.13100342

decoder.4.bias f4 [18]
000000 d4 9d 23 3f e6 5c 03 bf 02 36 e6 3e df 64 11 bf
       0.639127 -0.51313627 0.4496308 -0.5679454
000010 1c aa 86 bf ad fe e9 bd 2d 69 3e bf 06 e5 79 3e
       -1.0520663 -0.11425529 -0.74379236 0.24403772
000020 c6 58 b0 be 22 19 62 be 8b ae 4a be 5a f0 c4 3f
       -0.3444273 -0.220799 -0.19793145 1.538585
000030 96 29 37 c0 07 7b 84 bf 8a bc 02 c0 01 f4 eb 3f
       -2.8619132 -1.0350045 -2.0427575 1.8433839
000040 d6 46 00 bf 12 1a 88 bf
       -0.5010809 -1.0632956
